UCDavis_ECS189G/code/stage_3_code/result/AlexNetVar_model_MNIST.pth (torch, 175803 bytes, 14 tensors)

layers.0.weight f4 [6, 1, 3, 3]
0.0547796 -0.30724746 -0.27967456 -0.05917019 0.25737724 0.025275823 0.026915466 0.119770564
0.16123267 -0.14934205 -0.5455824 -0.06508376 -0.45165554 0.23687245 0.14606722 -0.29413077
0.02215811 0.17841198 0.0038003018 0.15135334 0.19235055 -0.3271715 -0.2493618 0.16920595
0.19942147 -0.3504866 -0.17807765 0.24681519 0.17659852 0.1596397 0.049023185 -0.022858115
-0.18734583 -0.34489712 -0.2511871 0.034244224 0.057454124 0.11270765 -0.04096202 0.02904349
0.14025144 -0.066026896 -0.104474455 0.065210074 0.13851291 0.23259455 0.04146715 -0.05283834
0.006068143 0.120675296 0.06529896 0.097053565 0.073262386 -0.040029235
00000000: 9360 603d 8a4f 9dbe 8131 8fbe 715c 72bd
00000010: f3c6 833e 3e0f cf3c d37d dc3c 454a f53d
00000020: 2d1a 253e 1fed 18be 4aab 0bbf a24a 85bd
00000030: 653f e7be b18e 723e a592 153e 4f98 96be
00000040: ed84 b53c a1b1 363e 7c0e 793b 5ffc 1a3e
00000050: 8bf7 443e 0683 a7be b358 7fbe 5344 2d3e
00000060: 2435 4c3e fb72 b3be fd59 36be 1fbd 7c3e
00000070: 3ed6 343e 9778 233e 89cc 483d f140 bbbc
00000080: 96d7 3fbe 5b96 b0be 989b 80be ac43 0c3d
00000090: 0455 6b3d 45d3 e63d cbc7 27bd 9dec ed3c
000000a0: 139e 0f3e 1c39 87bd b4f6 d5bd dc8c 853d
000000b0: 54d6 0d3e 442d 6e3e 75d9 293d 046d 58bd
000000c0: 46d7 c63b 9c24 f73d 76bb 853d 05c4 c63d
000000d0: 970a 963d b2f5 23bd

layers.0.bias f4 [6]
-0.25701556 -0.006023711 0.2234 -0.14329465 -0.21813376 -0.017552659
00000000: 8b97 83be 8d62 c5bb f8c2 643e d5bb 12be
00000010: 755e 5fbe 98ca 8fbc

layers.3.weight f4 [16, 6, 3, 3]
0.16239707 0.002069831 0.035401117 -0.0809649 0.035638392 0.06688479 0.11410043 -0.078456216
0.024980418 -0.06700431 -0.10720436 -0.08109984 0.063382454 -0.05272814 -0.142857 -0.02843082
-0.09515968 -0.064682394 0.0026186863 -0.12990287 -0.1315219 -0.12604424 0.020968847 -0.12740555
-0.2748217 -0.0027031074 -0.097121336 0.060623158 -0.121182725 -0.12443602 0.11319757 0.07440466
-0.16540617 -0.11318839 -0.1473208 -0.124084614 -0.19974649 0.0009364574 0.0657598 0.109223224
-0.026794028 -0.007846983 0.0115634855 0.11457953 0.16223638 -0.07093092 0.042415947 0.13981839
-0.06576771 -0.0380905 -0.028759142 -0.06007496 0.04317715 0.057204537 0.013463523 0.07380252
-0.062149897 -0.0007409499 0.104289405 -0.11129163 -0.0073666233 -0.20973137 -0.04398447 0.12374263
0.10408418 0.2274151 -0.07808596 0.21607085 0.17698826 0.1352696 0.11787554 -0.35536316
-0.042598017 -0.21537118 -0.16471691 -0.07934999 -0.29084378 -0.27203903 -0.16414785 -0.1575056
-0.06499432 -0.058147676 -0.10763995 0.017385406 -0.12096796 -0.11959435 0.0019935877 -0.10919414
-0.06345159 -0.09027984 -0.004944838 0.19257267 -0.040980794 0.034863625 0.041014384 0.02781101
0.11802522 0.11422384 -0.009129021 -0.045337506 0.058051553 0.13156304 0.013315893 0.15252015
-0.073844135 0.094366945 0.1380425 -0.042421896 -0.026381012 0.042404152 -0.050749816 0.09993202
0.18367332 0.2512037 -0.1244809 0.15742083 -0.029322518 0.10468101 0.06744739 -0.03596588
-0.09303242 -0.17722397 -0.048517548 -0.039240267 -0.18408991 -0.15972914 -0.23579815 0.008616228
-0.044104334 0.14203803 0.1593525 -0.22067678 0.08864506 0.04870545 0.16295274 -0.23025723
0.09926935 0.13177946 -0.029265674 -0.12290882 -0.09797516 -0.020629948 0.06179186 0.13987544
0.030135458 -0.019017963 0.04920958 0.054138377 0.04552651 -0.11348134 -0.087376535 0.024556627
0.011328752 -0.07287169 -0.08338127 -0.09118918 0.12095242 -0.08699128 -0.08163333 -0.15025668
0.13141447 0.07868048 -0.13683042 -0.2901497 -0.16972977 0.06670514 -0.03881427 -0.28000104
0.07056518 0.038632855 -0.1519235 -0.19713455 -0.25237313 -0.12611833 -0.22381657 -0.33426547
0.04897313 0.26305938 -0.057592716 0.05878108 0.2514553 0.10960777 0.017374763 0.0035742854
0.18363336 0.16508226 -0.07126764 0.053595293 0.12853104 0.12213879 0.013252141 -0.026945122
-0.071808755 -0.28172743 -0.17169398 0.01357901 -0.281152 -0.2960985 -0.24678034 -0.14740437
0.05201115 0.17359345 0.0116185555 0.053037096 0.2313188 -0.01549032 -0.17339492 -0.03329631
-0.15475483 0.038721755 -0.022124967 -0.06827164 -0.120742016 0.24886495 0.06389349 -0.034136336
0.072838895 -0.08205584 0.09126719 -0.17517817 -0.2129711 -0.008196376 0.22994703 -0.06573284
0.14702466 0.058384024 0.0059723537 0.009825855 -0.028678754 -0.0008103286 0.034076028 0.027169812
-0.15882166 -0.23162594 0.043903355 -0.03671212 -0.018430615 0.039436396 0.08824018 0.12035287
-0.08485653 0.227209 0.23887514 0.059405625 -0.018267531 -0.026572252 0.12736371 -0.03589215
-0.12088879 0.027955372 0.084088966 -0.025176479 -0.03610701 0.033015665 0.050203525 -0.044884115
00000000: 6b4b 263e 00a6 073b c300 113d edd0 a5bd
00000010: 90f9 113d e5fa 883d 7cad e93d a7ad a0bd
00000020: bca3 cc3c 8e39 89bd f68d dbbd ac17 a6bd
00000030: a9ce 813d 76f9 57bd 1b49 12be c0e7 e8bc
00000040: 14e3 c2bd 3478 84bd 449e 2b3b 4205 05be
00000050: adad 06be be11 01be dcc6 ab3c 9a76 02be
00000060: 6eb5 8cbe 9e26 31bb 8de7 c6bd fd4f 783d
00000070: a62e f8bd 50d8 febd 21d4 e73d 7861 983d
00000080: 3c60 29be 51cf e7bd 44db 16be 1320 febd
00000090: 588a 4cbe 987c 753a 13ad 863d 6db0 df3d
000000a0: 267f dbbc a290 00bc c674 3d3c aca8 ea3d
000000b0: 4b21 263e 3b44 91bd 58bc 2d3d 8d2c 0f3e
000000c0: 39b1 86bd c904 1cbd 4b98 ebbc 2911 76bd
000000d0: 86da 303d 4e4f 6a3d 1c96 5c3c c725 973d
000000e0: e490 7ebd 4e3c 42ba af95 d53d deec e3bd
000000f0: b763 f1bb d2c3 56be 0f29 34bd c76c fd3d
00000100: 162a d53d 81df 683e 88eb 9fbd ad41 5d3e
00000110: 693c 353e 1d84 0a3e bb68 f13d 29f2 b5be
00000120: 427b 2ebd 438a 5cbe 8dab 28be 3f82 a2bd
00000130: 7ae9 94be b348 8bbe 6016 28be 2649 21be
00000140: be1b 85bd 422c 6ebd 5672 dcbd d76b 8e3c
00000150: 0dbe f7bd e2ed f4bd daa6 023b 2da1 dfbd
00000160: e8f2 81bd a3e4 b8bd 4f08 a2bb c531 453e
00000170: 7adb 27bd 29cd 0e3d b3fe 273d ead3 e33c
00000180: 35b7 f13d 30ee e93d e491 15bc d2b3 39bd
00000190: 77c7 6d3d 76b8 063e e72a 5a3c 3e2e 1c3e
000001a0: 983b 97bd 7543 c13d 035b 0d3e 95c2 2dbd
000001b0: fe1c d8bc faaf 2d3d 0adf 4fbd 29a9 cc3d
000001c0: dc14 3c3e c59d 803e d8ef febd ed32 213e
000001d0: c735 f0bc ff62 d63d db21 8a3d f550 13bd
000001e0: c887 bebd 337a 35be 56ba 46bd 67ba 20bd
000001f0: 1182 3cbe 0990 23be 1275 71be 142b 0d3c
00000200: bfa6 34bd 6b72 113e 4d2d 233e 18f9 61be
00000210: 8b8b b53d 5e7f 473d 15dd 263e 8dc8 6bbe
00000220: bb4d cb3d 32f1 063e 91be efbc 9fb7 fbbd
00000230: 33a7 c8bd 2300 a9bc 7619 7d3d 823b 0f3e
00000240: a3de f63c 8fcb 9bbc fc8f 493d 34c0 5d3d
00000250: 017a 3a3d e868 e8bd 78f2 b2bd fb2a c93c
00000260: 3b9c 393c c13d 95bd cdc3 aabd 65c1 babd
00000270: e7b5 f73d 7c28 b2bd 602f a7bd e3dc 19be
00000280: 8491 063e 3b23 a13d 461d 0cbe 808e 94be
00000290: a4cd 2dbe b49c 883d b6fb 1ebd 4c5c 8fbe
000002a0: 7a84 903d 7c3d 1e3d d591 1bbe a4dd 49be
000002b0: 0d37 81be 2a25 01be 2c30 65be d824 abbe
000002c0: 0c98 483d b8af 863e 57e6 6bbd 6ec4 703d
000002d0: c0be 803e 0a7a e03d 8555 8e3c 8f3e 6a3b
000002e0: 620a 3c3e 530b 293e c5f4 91bd bd86 5b3d
000002f0: a49d 033e e723 fa3d 821f 593c 04bc dcbc
00000300: 7810 93bd 943e 90be 8cd0 2fbe 7f7a 5e3c
00000310: 28f3 8fbe 399a 97be fcb3 7cbe 2cf1 16be
00000320: a509 553d 7bc2 313e c15b 3e3c 6d3d 593d
00000330: d6de 6c3e 1ccb 7dbc 708e 31be b661 08bd
00000340: 0d78 1ebe b49a 1e3d 6b3f b5bc 00d2 8bbd
00000350: 9747 f7bd 74d6 7e3e 97da 823d 8bd2 0bbd
00000360: 8f2c 953d e40c a8bd 4bea ba3d e861 33be
00000370: 1915 5abe 184a 06bc 3c77 6b3e f09e 86bd
00000380: a28d 163e 1624 6f3d bcb3 c33b 9ffc 203c
00000390: b5ef eabc 3b6c 54ba 4e93 0b3d 3a93 de3c
000003a0: 25a2 22be 5a2f 6dbe 01d4 333d 735f 16bd
000003b0: cdfb 96bc 0f88 213d 44b7 b43d 917b f63d
000003c0: 43c9 adbd 7aa9 683e af9b 743e 5053 733d
000003d0: caa5 95bc 0dae d9bc a26b 023e a603 13bd
000003e0: 8b94 f7bd aa02 e53c d636 ac3d e73e cebc
000003f0: f2e4 13bd 6f3b 073d 36a2 4d3d 68d8 37bd

layers.3.bias f4 [16]
-0.10624716 0.057434753 -0.1499019 0.09004146 -0.23479532 0.08270637 -0.11782795 0.023963414
-0.1082769 -0.1809386 0.012787642 -0.11741129 0.06669062 0.0377325 -0.12731208 -0.121820204
00000000: 1c98 d9bd b440 6b3d e27f 19be a867 b83d
00000010: 2f6e 70be f561 a93d c84f f1bd ec4e c43c
00000020: 48c0 ddbd f847 39be 4283 513c 5575 f0bd
00000030: 1795 883d 658d 1a3d 195e 02be df7c f9bd

layers.6.weight f4 [32, 16, 3, 3]
0.014348645 0.025751632 -0.07192534 -0.047376465 -0.20567752 0.052255522 0.066362604 -0.11819361
0.08908048 0.13297231 -0.010216008 -0.088902645 -0.030316934 0.01830087 -0.122753926 0.104797296
-0.028821798 0.13662654 0.086079426 -0.044735126 -0.058967095 -0.024724878 -0.03902466 -0.041294288
-0.11448997 -0.14063175 0.010187701 0.011221974 0.062847175 0.10308828 0.09569674 0.26224712
-0.0018836893 -0.054906525 0.03206249 -0.07438886 -0.05179153 0.017390491 0.0066097355 0.098140106
-0.028211845 -0.104461774 0.05857958 -0.09950057 -0.051306646 0.012498905 -0.021962648 -0.08600891
0.17321394 0.008544222 0.11913438 0.040367175 -0.0372527 0.068441555 0.055692006 -0.006950965
-0.060128164 -0.0019842137 0.00059395714 0.01366434 -0.117534004 -0.034418244 -0.024073154 0.08098377
-0.061502174 -0.06893447 -0.09725882 -0.06965938 0.012977696 -0.039831262 -0.27789256 -0.053465605
0.041705143 0.044269558 -0.043161016 0.17286164 0.104150556 0.08590722 0.043727558 0.18328069
-0.032677468 0.24217923 0.17023325 0.023113977 -0.040993553 0.005107919 0.17805578 -0.21158615
-0.035581786 -0.00234504 -0.113888435 0.03506931 0.102524824 -0.14517464 -0.14169593 0.19400772
-0.015608811 -0.09350512 -0.15224311 0.0058143744 0.07788645 -0.09562755 -0.12528187 0.07236546
-0.031704586 0.10205006 -0.027713725 -0.028833378 -0.020195058 -0.027795618 0.012375728 0.072141096
-0.15237924 -0.0672092 0.037191026 -0.06839046 -0.042706884 -0.0059850733 0.05436823 0.10251366
0.030706108 -0.0736959 -0.13433103 0.08049132 0.039542675 -0.15645854 -0.1162412 0.099543065
-0.069669336 -0.02514588 -0.07842031 -0.08960952 -0.0408959 -0.089744 -0.13714093 -0.025716215
0.098310925 0.024080016 -0.012115282 -0.13618767 -0.10162222 0.028883675 -0.1658646 -0.18853034
0.058299694 0.07935897 0.033694644 -0.09385508 -0.00550031 0.02746317 -0.0039556506 -0.010934802
0.12825127 -0.06250256 -0.040484685 0.03885851 -0.06593147 -0.15605511 0.15164465 -0.22918783
-0.021074053 0.08156307 0.10789341 -0.021294456 -0.09227138 -0.14945367 0.014017261 -0.13274159
-0.12519024 -0.1422325 -0.06530468 -0.10536405 0.09988268 -0.009428181 -0.062762246 -0.030866178
0.03432041 0.06360784 0.1674603 0.064611204 -0.20144252 -0.0028973185 -0.00044490813 -0.055602305
-0.055600252 0.094233155 -0.076981924 0.041899584 0.08281075 -0.29505405 0.10626977 0.037545383
-0.05696097 0.0052901963 0.0827965 -0.16324088 -0.035980005 0.13615203 0.12033408 -0.09337972
0.05136143 0.018463569 -0.040187806 0.12895535 0.025839642 -0.116296545 0.025447555 -0.00964304
0.11945831 -0.06949647 0.012049102 -0.043493833 -0.081885934 -0.09078839 -0.11746293 -0.10628979
-0.053383037 -0.13013633 -0.012195207 -0.24701719 -0.054284923 0.033290837 -0.06777552 -0.08664563
0.056088425 0.17642322 -0.011865007 0.05955886 0.01948997 -0.07510304 -0.07749161 -0.14619605
-0.22756755 -0.23658705 0.070816055 0.05374209 0.05753798 0.14986296 0.14751644 -0.22718006
0.02265196 -0.15718047 -0.30452996 0.0032936165 0.015948683 -0.056970976 -0.040881902 -0.014735016
0.040875778 0.07477434 0.083820574 -0.13348298 -0.09406077 0.022361219 -0.019763257 0.006568913
00000000: 9416 6b3c 16f5 d23c 984d 93bd d30d 42bd
00000010: 219d 52be e309 563d 1ee9 873d 7e0f f2bd
00000020: d46f b63d e529 083e 0b61 27bc 9712 b6bd
00000030: 385b f8bc b5eb 953c 6966 fbbd f79f d63d
00000040: b11b ecbc d4e7 0b3e 694a b03d 2e3c 37bd
00000050: 7b87 71bd d48b cabc 52d8 1fbd 3324 29bd
00000060: b879 eabd c501 10be 51ea 263c 5fdc 373c
00000070: 05b6 803d f31f d33d a7fc c33d 4145 863e
00000080: 20e6 f6ba aae5 60bd f553 033d 3059 98bd
00000090: 5b23 54bd 8176 8e3c 7b96 d83b aefd c83d
000000a0: 871c e7bc 0ef0 d5bd 24f1 6f3d f4c6 cbbd
000000b0: eb26 52bd 35c8 4c3c 03eb b3bc 7025 b0bd
000000c0: ff5e 313e 11fd 0b3c bafc f33d 0d58 253d
000000d0: 4a96 18bd 162b 8c3d 4d1d 643d ecc4 e3bb
000000e0: f348 76bd 9509 02bb cab3 1b3a 65e0 5f3c
000000f0: abb5 f0bd 25fa 0cbd 1035 c5bc d2da a53d
00000100: b4e9 7bbd 842d 8dbd a22f c7bd 94a9 8ebd
00000110: 67a0 543c 1b26 23bd ef47 8ebe c0fe 5abd
00000120: 03d3 2a3d ff53 353d 9bc9 30bd a402 313e
00000130: e34c d53d 20f0 af3d ab1b 333d efad 3b3e
00000140: cfd8 05bd d5fd 773e a051 2e3e 8659 bd3c
00000150: dbe8 27bd 5560 a73b 4154 363e 0aaa 58be
00000160: 35be 11bd 3eaf 19bb 573e e9bd d6a4 0f3d
00000170: 89f8 d13d a9a8 14be bd18 11be f6a9 463e
00000180: 19bc 7fbc 9d7f bfbd 9ee5 1bbe 8286 be3b
00000190: ee82 9f3d 60d8 c3bd e449 00be 5834 943d
000001a0: abdc 01bd 9fff d03d e507 e3bc fa33 ecbc
000001b0: 1b70 a5bc a3b3 e3bc 91c3 4a3c b6be 933d
000001c0: 4e09 1cbe faa4 89bd 9e55 183d 4c10 8cbd
000001d0: 6aed 2ebd 6f1e c4bb 39b1 5e3d aff2 d13d
000001e0: 608b fb3c e0ed 96bd 138e 09be a2d8 a43d
000001f0: 80f7 213d ab36 20be de0f eebd 3cdd cb3d
00000200: ccae 8ebd bcfe cdbc d49a a0bd 3285 b7bd
00000210: 7682 27bd b4cb b7bd ac6e 0cbe d0aa d2bc
00000220: 3d57 c93d 7443 c53c 2d7f 46bc c874 0bbe
00000230: 4f1f d0bd 759d ec3c 69d8 29be 190e 41be
00000240: a9cb 6e3d f586 a23d 6503 0a3d 1837 c0bd
00000250: f23b b4bb 71fa e03c 679e 81bb e227 33bc
00000260: 4d54 033e 5801 80bd 45d3 25bd 1a2a 1f3d
00000270: 1407 87bd e9cc 1fbe bc48 1b3e 37b0 6abe
00000280: 7ea3 acbc 8a0a a73d 38f7 dc3d b671 aebc
00000290: c7f8 bcbd 620a 19be a7a8 653c 69ed 07be
000002a0: df31 00be 65a5 11be 76be 85bd 1bc9 d7bd
000002b0: 4a8f cc3d a878 1abc 7e89 80bd 11db fcbc
000002c0: 8f93 0c3d d444 823d b67a 2b3e e152 843d
000002d0: f346 4ebe f0e0 3dbb 8f42 e9b9 3ebf 63bd
000002e0: 17bd 63bd 50fd c03d b3a8 9dbd e69e 2b3d
000002f0: af98 a93d 5311 97be f7a3 d93d 30c9 193d
00000300: e84f 69bd 6259 ad3b 3691 a93d 9e28 27be
00000310: c55f 13bd 706b 0b3e b771 f63d de3d bfbd
00000320: 5d60 523d e940 973c f89b 24bd df0c 043e
00000330: a8ad d33c e22c eebd 6477 d03c d7fd 1dbc
00000340: 8fa6 f43d 2a54 8ebd 9969 453c 9726 32bd
00000350: d0b3 a7bd 43ef b9bd 6890 f0bd 76ae d9bd
00000360: 2ca8 5abd 7542 05be 68ce 47bc 13f2 7cbe
00000370: de59 5ebd f95b 083d e4cd 8abd 4473 b1bd
00000380: fabc 653d 4aa8 343e 7265 42bc fef3 733d
00000390: 6ea9 9f3c 9fcf 99bd ecb3 9ebd 6bb4 15be
000003a0: 7807 69be e043 72be 0208 913d aa20 5c3d
000003b0: f2ac 6b3d ad75 193e 8d0e 173e e4a1 68be
000003c0: 9a90 b93c ebf3 20be 5aeb 9bbe b7d9 573b
000003d0: d0a6 823c 665a 69bd c873 27bd 236b 71bc
000003e0: 5c6d 273d 4a23 993d 1faa ab3d c3af 08be
000003f0: efa2 c0bd e02e b73c 8ee6 a1bc 0940 d73b

layers.6.bias f4 [32]
-0.04531667 -0.114644065 0.03102123 0.058411475 -0.16917975 -0.06622468 -0.0628417 -0.027611759
0.026444059 -0.28917366 -0.11605209 -0.2375441 -0.16323914 -0.16927098 -0.18421106 0.044739712
-0.06957431 0.006139075 -0.13099381 -0.12786926 -0.25694394 0.10449828 -0.10247212 -0.19093472
-0.06777676 -0.0467993 0.013236654 -0.019334413 -0.07657281 -0.01472546 -0.20018575 -0.13145554
00000000: f99d 39bd 82ca eabd 3c20 fe3c df40 6f3d
00000010: 753d 2dbe cea0 87bd 26b3 80bd 0e32 e2bc
00000020: 36a1 d83c 920e 94be b8ac edbd c33e 73be
00000030: 2928 27be 5f55 2dbe d3a1 3cbe fd40 373d
00000040: fa7c 8ebd 4b2a c93b 3e23 06be 29f0 02be
00000050: 288e 83be 3203 d63d e7dc d1bd 6484 43be
00000060: 8bce 8abd 9fb0 3fbd 8dde 583c 3463 9ebc
00000070: 35d2 9cbd 0e43 71bc 7efd 4cbe 489c 06be

layers.9.weight f4 [64, 32, 3, 3]
-0.020466127 -0.03275955 0.033456184 -0.0339054 -0.051014993 -0.11022632 -0.01978382 -0.09445332
-0.0035338937 -0.0015695015 0.022293769 -0.10721832 -0.040966585 -0.042632863 -0.055291038 -0.029756626
-0.0020133157 0.05695614 -0.03170808 0.123595335 0.08858707 0.036302086 0.06573178 -0.122798406
-0.062179524 -0.010086641 0.008187934 0.036411233 0.023929553 -0.044961866 -0.08395141 -0.061223328
0.027613709 -0.010524212 -0.010246013 -0.06484667 -0.004749935 0.0075236643 -0.06286482 -0.05566436
0.006497628 0.005695843 0.084628895 -0.055134177 -0.025167426 -0.013509946 0.011526736 0.1337011
-0.02442088 -0.08327323 0.022064222 0.018603956 -0.15517315 -0.16867566 -0.0627631 0.040017735
-0.033116873 0.016814332 -0.014690448 0.0032065886 -0.044363167 -0.016542358 -0.015457891 -0.04790873
0.05225411 -0.109398805 0.042689722 0.001647993 -0.055164397 0.020644858 -0.0064925305 -0.058525838
-0.05831491 0.0006415106 -0.0023668061 -0.05046139 0.03184523 -0.045496825 0.03419218 -0.020491958
-0.09523231 -0.020550469 0.016632374 -0.030947348 -0.048308525 0.037803326 0.0052375323 -0.053953316
0.020643335 -0.07120374 0.015953496 -0.06847836 -0.042224746 -0.092039034 -0.064668715 0.023548873
0.064115755 -0.04307189 -0.060966864 -0.07219161 -0.029886365 0.010602889 -0.037250016 0.019986037
-0.07522501 -0.030952811 -0.042674806 -0.09894914 0.03351382 0.05446885 -0.09372379 -0.063977204
-0.07564639 -0.05367422 0.018089265 0.0013350705 -0.043103296 -0.04487519 0.03217349 -0.01506211
0.06168328 -0.019790102 -0.054298848 0.004289164 -0.04639076 -0.12438247 -0.03804927 -0.089566104
-0.084347636 0.007232687 -0.042153634 -0.034827974 0.07661073 -0.074927375 -0.01412084 -0.01397518
-0.026664017 -0.09060135 -0.124738045 0.0007592978 -0.009342388 -0.035687897 -0.061140567 0.028064396
-0.021042302 -0.07177627 0.0471668 0.019191295 -0.043508034 -0.10835436 -0.059681393 0.008368428
-0.03589343 -0.029128272 -0.05073331 -0.0072329617 0.011230068 -0.02744395 -0.05197464 0.0020802275
-0.077758655 -0.03228731 -0.09174034 -0.010038695 -0.040016197 -0.055067826 0.030831883 -0.06522811
0.0059608957 -0.061887745 -0.008935793 -0.052978102 0.039266396 -0.063882776 0.022725401 0.00036298198
-0.023797786 -0.06135848 -0.09751953 0.07305498 -0.051116005 0.043762546 -0.054873485 -0.007526366
-0.0690014 -0.031846378 -0.009572223 -0.0073801647 -0.0476649 -0.087908775 0.06977783 -0.066072926
0.01927158 0.031513322 0.00086660625 -0.028936047 0.0040822397 0.01939584 -0.08505704 0.006763872
-0.04604217 -0.019309398 -0.038352277 -0.105107166 -0.041781344 -0.09827475 0.012432245 0.0052112853
-0.0071743457 0.029098475 -0.06832144 -0.060232475 -0.08151584 0.07727883 0.0262725 0.0452424
0.07285781 -0.013861902 0.06652985 -0.05931028 -0.05293251 0.063397266 0.0050810957 -0.09488168
-0.06413911 0.08549337 0.06289596 0.012502899 0.013573215 0.027921665 -0.0867316 -0.08375127
0.054169443 -0.0150572555 0.038585853 0.044142738 -0.014265898 -0.045338735 -0.0003101298 -0.01239754
-0.0338654 -0.08700963 -0.08034782 -0.0012091695 0.027502745 0.013444644 -0.013133472 -0.059003685
-0.01548818 -0.056615636 -0.035228442 -0.055548385 -0.10918581 0.039226484 -0.054227386 -0.025001176
00000000: 94a8 a7bc e12e 06bd 5a09 093d 64e0 0abd
00000010: 19f5 50bd 56be e1bd ad11 a2bc be70 c1bd
00000020: e698 67bb bbb7 cdba 6ca1 b63c 4795 dbbd
00000030: 94cc 27bd cc9f 2ebd db78 62bd 2bc4 f3bc
00000040: d5f1 03bb d74a 693d 55e0 01bd 8d1f fd3d
00000050: 236d b53d 7fb1 143d 629e 863d bb7d fbbd
00000060: f5af 7ebd 7042 25bc af26 063c f223 153d
00000070: e907 c43c ef29 38bd b8ee abbd 50c5 7abd
00000080: 2536 e23c bf6d 2cbc e5de 27bc 55ce 84bd
00000090: 58a5 9bbb 1289 f63b 45bf 80bd 5000 64bd
000000a0: 0eea d43b 32a4 ba3b ea51 ad3d 60d4 61bd
000000b0: eb2b cebc d258 5dbc a3da 3c3c f1e8 083e
000000c0: 4c0e c8bc 288b aabd 07c0 b43c 5367 983c
000000d0: b6e5 1ebe 50b9 2cbe f189 80bd a3e9 233d
000000e0: 8fa5 07bd 36be 893c 34b0 70bc a125 523b
000000f0: 27b6 35bd d783 87bc 1843 7dbc f23b 44bd
00000100: 6808 563d 7b0c e0bd 6bdb 2e3d 7801 d83a
00000110: 10f4 61bd 681f a93c 4bbf d4bb cab8 6fbd
00000120: 9ddb 6ebd 0c2b 283a 6b1c 1bbb 9ab0 4ebd
00000130: 2570 023d e15a 3abd 190d 0c3d c0de a7bc
00000140: 2809 c3bd 7559 a8bc 9e40 883c 4b85 fdbc
00000150: 29df 45bd a9d7 1a3d 9b9f ab3b 27fe 5cbd
00000160: 361c a93c 44d3 91bd e8b0 823c 623e 8cbd
00000170: dbf3 2cbd f67e bcbd 0871 84bd 91e9 c03c
00000180: 1f4f 833d 266c 30bd 64b8 79bd 32d9 93bd
00000190: 40d4 f4bc bdb7 2d3c 7993 18bd c2b9 a33c
000001a0: 920f 9abd c090 fdbc c7cb 2ebd d9a5 cabd
000001b0: ca45 093d bb1a 5f3d 42f2 bfbd 7b06 83bd
000001c0: 7fec 9abd 80d9 5bbd f02f 943c 88fd ae3a
000001d0: 158d 30bd 0ccf 37bd 59c8 033d 11c7 76bc
000001e0: 9ba7 7c3d da1e a2bc 7868 5ebd 1e8c 8c3b
000001f0: 3d04 3ebd 3dbc febd 8dd9 1bbd 6f6e b7bd
00000200: 74be acbd 2d00 ed3b 4aa9 2cbd c7a7 0ebd
00000210: 16e6 9c3d 8673 99bd 185b 67bc 27f8 64bc
00000220: 7f6e dabc 338d b9bd a976 ffbd 9d0b 473a
00000230: d110 19bc 792d 12bd 886e 7abd 4ee7 e53c
00000240: e860 acbc 70ff 92bd f931 413d 1037 9d3c
00000250: 7b35 32bd e4e8 ddbd 7a74 74bd bb1b 093c
00000260: fd04 13bd 6a9e eebc bbcd 4fbd 7b02 edbb
00000270: 52fe 373c 22d2 e0bc 5ce3 54bd 6d54 083b
00000280: ee3f 9fbd b33f 04bd 5ce2 bbbd 5779 24bc
00000290: 06e8 23bd cd8e 61bd 2593 fc3c 5196 85bd
000002a0: 9e53 c33b 017e 7dbd 6f67 12bc 91ff 58bd
000002b0: cdd5 203d f9d4 82bd 9f2a ba3c 9e4e be39
000002c0: 93f3 c2bc 0853 7bbd 52b8 c7bd d99d 953d
000002d0: 045f 51bd 5b40 333d 05c3 60bd bc9f f6bb
000002e0: 9b50 8dbd 5971 02bd d0d4 1cbc 4fd5 f1bb
000002f0: 453c 43bd 8409 b4bd aee7 8e3d 3e51 87bd
00000300: 6fdf 9d3c 1d14 013d f62c 633a 4a0b edbc
00000310: 4fc4 853b 06e4 9e3c 6332 aebd 79a3 dd3b
00000320: b796 3cbd be2e 9ebc 4717 1dbd 6d42 d7bd
00000330: ea22 2bbd 4644 c9bd 9db0 4b3c 6ec3 aa3b
00000340: c616 ebbb ed5f ee3c 1cec 8bbd 54b6 76bd
00000350: c7f1 a6bd 5d44 9e3d 6d39 d73c 1850 393d
00000360: 7a36 953d 081d 63bc cd40 883d 56ef 72bd
00000370: c2cf 58bd 6dd6 813d 527f a63b 5451 c2bd
00000380: 5e5b 83bd 2617 af3d 99cf 803d f6d8 4c3c
00000390: 3162 5e3c fabb e43c 56a0 b1bd c985 abbd
000003a0: c7e0 5d3d b5b2 76bc 330c 1e3d 04cf 343d
000003b0: 83bb 69bc 1cb5 39bd eb98 a2b9 0d1f 4bbc
000003c0: 72b6 0abd 1b32 b2bd 668d a4bd ff7c 9eba
000003d0: 704d e13c ed46 5c3c c62d 57bc d9ad 71bd
000003e0: 23c2 7dbc cce5 67bd b34b 10bd b486 63bd
000003f0: cf9c dfbd f3ab 203d 891d 5ebd 44cf ccbc

layers.9.bias f4 [64]
-0.063849516 -0.0682242 -0.047384508 -0.13315763 -0.018161269 -0.021985574 -0.023148624 -0.0666341
-0.12271207 0.065863244 -0.0076630195 -0.0043621105 -0.100778595 -0.013216615 0.03565265 -0.0113073625
-0.08397597 -0.084269084 0.043860544 -0.10191546 -0.006315579 0.011083041 -0.039384943 0.0055192173
-0.12665442 -0.0821815 -0.0016667099 -0.06079533 0.029513026 -0.057262484 0.07122884 -0.07749365
-0.04218902 -0.071354106 -0.051904578 -0.08133418 0.067685544 0.0058572455 -0.039918926 -0.01881926
0.01676483 0.0054039336 -0.031408973 -0.011185268 0.023148136 0.06138954 0.0012257093 -0.09301946
-0.023712723 -0.008753953 0.013436412 0.015465775 -0.013528578 -0.012951066 0.016455218 0.013774965
-0.031178419 0.005635712 -0.0052057984 0.061513066 -0.03444631 0.0067283916 -0.0028452834 0.0852116
00000000: 89c3 82bd 21b9 8bbd 4216 42bd 795a 08be
00000010: f1c6 94bc 171b b4bc 2fa2 bdbc 7677 88bd
00000020: 7750 fbbd 4fe3 863d 111a fbbb 09f0 8ebb
00000030: 0265 cebd 808a 58bc 8308 123d 8442 39bc
00000040: 98fb abbd 4595 acbd 1da7 333d 0db9 d0bd
00000050: ebf2 cebb a595 353c 1b52 21bd 8dda b43b
00000060: b2b1 01be c64e a8bd 8175 daba 8604 79bd
00000070: 4dc5 f13c 118c 6abd 6de0 913d feb4 9ebd
00000080: 65ce 2cbd 1a22 92bd e599 54bd 8992 a6bd
00000090: b89e 8a3d 23ee bf3b 0782 23bd d92a 9abc
000000a0: 6656 893c 7b13 b13b b2a6 00bd 6a42 37bc
000000b0: 29a1 bd3c 9973 7b3d fba7 a03a fd80 bebd
000000c0: 2f41 c2bc bd6c 0fbc 6624 5c3c 2964 7d3c
000000d0: f8a6 5dbc b530 54bc 18cd 863c 64b0 613c
000000e0: e269 ffbc c7ab b83b 6795 aabb 20f5 7b3d
000000f0: 9317 0dbd d779 dc3b ef77 3abb 6b83 ae3d

layers.12.weight f4 [120, 64]
0.052512597 -0.135753 0.09065061 -0.083790146 -0.027842881 -0.06453613 -0.03759387 -0.019420935
-0.13219783 -0.12828392 0.13456441 0.0736464 0.1215475 0.072646946 -0.09765724 0.1419193
-0.099667445 0.10496967 0.03067889 0.0074101677 -0.03956022 0.03631045 0.042071767 0.017880224
-0.018857408 -0.10993184 -0.046699136 -0.12621889 -0.08643839 -0.020998253 -0.06935711 0.08295952
0.09105308 -0.10957946 -0.15397575 -0.07125224 0.056105595 0.07289386 0.017354827 0.062788256
0.16316369 -0.031770553 -0.12177169 -0.0513635 0.013626892 -0.081240796 -0.111289665 0.05751926
-0.13335474 0.12073195 0.16327347 0.15217271 0.12262066 0.014963624 -0.18591452 -0.05019264
-0.15948504 0.0105453655 0.13781002 -0.048107974 0.058308546 0.047016907 -0.06886815 -0.036785122
-0.014993188 0.05262273 -0.06980691 -0.083816476 0.030307872 -0.09485908 0.19688344 -0.17080861
-0.12085532 0.1117028 0.07117907 0.12493333 0.017828444 -0.15585594 0.0984481 -0.3143243
0.0019211445 0.051519223 -0.017530007 0.04239807 -0.18205847 0.061321918 0.15634038 -0.09838989
0.122362256 0.029145181 0.11080313 -0.024778074 -0.08892068 0.036840554 0.09570799 0.08634685
-0.22940688 0.1385885 0.21636543 0.015665732 -0.10917916 -0.06440941 -0.004294148 -0.10585366
-0.15782875 -0.18039738 -0.06559826 0.19078337 0.08088504 -0.03994147 -0.09371844 -0.009443741
0.08168681 0.014051982 -0.056123357 -0.07282257 -0.16052553 -0.0038095335 -0.089230835 -0.0916708
-0.110497355 0.13024206 -0.0023670248 -0.25979754 -0.047108814 -0.01947918 0.07023466 -0.2310924
-0.020407405 0.011521966 0.11969339 0.039685898 0.088918276 -0.0032921478 -0.071922265 -0.13574722
-0.08767944 -0.0057654595 -0.16938198 -0.16149673 -0.063871704 0.028110541 -0.16178975 -0.062257115
0.07111876 -0.07290222 -0.14321245 -0.17697725 -0.03723533 -0.10004757 -0.016381083 -0.030855179
-0.2379504 0.10331461 -0.1300979 -0.12848505 -0.102779746 0.06875127 -0.2184987 -0.10213148
-0.06917961 0.06826396 -0.005120748 -0.029096473 0.07119518 -0.05604655 0.07035645 -0.006055998
-0.18066958 -0.0054295934 -0.20392767 -0.03595723 -0.04406258 0.08282483 -0.1197802 -0.2562053
-0.10322022 0.09560748 -0.109160736 -0.0021046998 0.060277708 0.031977378 -0.1902618 0.04516135
0.06006585 0.079161175 -0.0035472894 0.10240058 -0.043072455 -0.08667676 -0.07589099 -0.00898708
0.11838873 0.055066522 0.05698099 -0.03777895 -0.04295455 -0.14979626 -0.07103544 -0.092480384
0.074814305 -0.1494064 0.0894582 -0.07928416 0.13835026 -0.2343558 0.02414929 -0.10697559
0.09059143 0.05735754 0.14638487 -0.055053674 -0.14772375 0.095129475 0.044950645 0.11389053
-0.24110141 -0.029597208 -0.19060108 0.02472803 0.039008476 0.08006251 -0.27627084 -0.11591437
-0.23887317 0.018874334 -0.02284521 -0.17359784 -0.078117564 0.048445754 -0.014755685 0.0661764
0.057022996 -0.0366001 0.13181031 0.06428139 0.06527339 0.021962024 0.021860896 -0.026736101
0.15205616 -0.04928687 -0.184029 -0.04625123 0.07732705 0.012833943 0.016507456 0.057435304
-0.12796935 0.15733305 0.12473639 -0.02354085 -0.13891566 -0.2497393 0.032204535 0.12905577
00000000: 7317 573d d602 0bbe 07a7 b93d 2b9a abbd
00000010: c116 e4bc 852b 84bd 08fc 19bd a718 9fbc
00000020: de5e 07be dc5c 03be 41cb 093e ecd3 963d
00000030: e5ed f83d ecc7 943d 8500 c8bd 4b53 113e
00000040: 721e ccbd 57fa d63d 4c52 fb3c fed0 f23b
00000050: e609 22bd 44ba 143d 7253 2c3d 8c79 923c
00000060: da7a 9abc f223 e1bd 9847 3fbd 863f 01be
00000070: 9c06 b1bd 8704 acbc 1a0b 8ebd aee6 a93d
00000080: 0a7a ba3d 326b e0bd d2ab 1dbe b2ec 91bd
00000090: fbce 653d 6049 953d b62b 8e3c 2197 803d
000000a0: 6214 273e d721 02bd 7063 f9bd 8962 52bd
000000b0: 5443 5f3c 9361 a6bd d6eb e3bd 5199 6b3d
000000c0: 258e 08be 5042 f73d 2931 273e 2ad3 1b3e
000000d0: 8a20 fb3d fd29 753c 6060 3ebe cc96 4dbd
000000e0: 0c50 23be 78c6 2c3c 121e 0d3e de0c 45bd
000000f0: f1d4 6e3d cd94 403d bf0a 8dbd ffab 16bd
00000100: fda5 75bc ef8a 573d edf6 8ebd f9a7 abbd
00000110: 3748 f83c 7a45 c2bd d09b 493e 74e8 2ebe
00000120: fe82 f7bd 70c4 e43d 55c6 913d 0cdd ff3d
00000130: f50c 923c b398 1fbe 289f c93d 1def a0be
00000140: eace fb3a d205 533d 179b 8fbc 99a9 2d3d
00000150: 896d 3abe b12c 7b3d b117 203e a380 c9bd
00000160: 1099 fa3d e0c1 ee3c c0ec e23d 63fb cabc
00000170: 0c1c b6bd 1fe6 163d 8d02 c43d 9ed6 b03d
00000180: a3e9 6abe 25ea 0d3e e68e 5d3e 6c55 803c
00000190: 5399 dfbd 15e9 83bd edb5 8cbb cec9 d8bd
000001a0: dc9d 21be 17ba 38be 6158 86bd b75c 433e
000001b0: 0ea7 a53d ab99 23bd 74ef bfbd ecb9 1abc
000001c0: 6a4b a73d 493a 663c 9be1 65bd 0024 95bd
000001d0: ce60 24be 5ea9 79bb a8be b6bd e6bd bbbd
000001e0: 704c e2bd 2d5e 053e 1620 1bbb 2f04 85be
000001f0: 2cf5 40bd cd92 9fbc 30d7 8f3d 7ca3 6cbe
00000200: 6e2d a7bc a1c6 3c3c cf21 f53d ae8d 223d
00000210: c91a b63d 13c1 57bb fb4b 93bd 5201 0bbe
00000220: 4791 b3bd 2eec bcbb 7872 2dbe 665f 25be
00000230: 2bcf 82bd 1448 e63c 36ac 25be 5101 7fbd
00000240: b6a6 913d c24d 95bd 49a6 12be 8639 35be
00000250: 1384 18bd bee5 ccbd 9f31 86bc 00c4 fcbc
00000260: 45a9 73be 9c96 d33d 6238 05be 9691 03be
00000270: 307e d2bd 77cd 8c3d 20be 5fbe 4f2a d1bd
00000280: 0aae 8dbd facd 8b3d f3cb a7bb ba5b eebc
00000290: c7ce 913d 1191 65bd 0b17 903d 6571 c6bb
000002a0: 7201 39be bbea b1bb 6ad2 50be e347 13bd
000002b0: f77a 34bd 11a0 a93d 524f f5bd 572d 83be
000002c0: 1f65 d3bd dbcd c33d aa8f dfbd 01ef 09bb
000002d0: c2e5 763d b6fa 023d fdd3 42be 1cfb 383d
000002e0: 9c07 763d 411f a23d a479 68bb 65b7 d13d
000002f0: be6c 30bd 9683 b1bd bc6c 9bbd 8c3e 13bc
00000300: ca75 f23d 6f8d 613d e664 693d 1abe 1abd
00000310: 1cf1 2fbd 3164 19be 077b 91bd 5b66 bdbd
00000320: 3e38 993d fefd 18be dc35 b73d bc5f a2bd
00000330: b1ab 0d3e f8fa 6fbe bbd4 c53c 0516 dbbd
00000340: 0088 b93d bdef 6a3d eae5 153e f67f 61bd
00000350: e544 17be 3ed3 c23d 2b1e 383d 703f e93d
00000360: 4ae3 76be d875 f2bc ee2c 43be 7092 ca3c
00000370: 5ac7 1f3d d0f7 a33d 5f73 8dbe 8364 edbd
00000380: 2b9b 74be 599e 9a3c e125 bbbc a2c3 31be
00000390: 1afc 9fbd 0e6f 463d d4c1 71bc 7e87 873d
000003a0: f290 693d fde9 15bd 48f9 063e f6a5 833d
000003b0: 0eae 853d b4e9 b33c 9f15 b33c ab05 dbbc
000003c0: 9cb4 1b3e 07e1 49bd 1972 3cbe ee71 3dbd
000003d0: a55d 9e3d 7545 523c a53a 873c 4841 6b3d
000003e0: 660a 03be ea1b 213e cb75 ff3d bed8 c0bc
000003f0: e83f 0ebe a9bb 7fbe e7e8 033d 3227 043e

layers.12.bias f4 [120]
0.05114263 -0.10020887 0.01120312 -0.092918836 0.111533254 -0.11951446 -0.010859623 -0.075951174
0.03990562 0.05644622 0.018643916 -0.021308243 0.08530329 -0.16481319 -0.054884113 0.008098612
0.1532026 -0.1286599 -0.0241234 -0.10144472 -0.10358281 -0.002831973 -0.088831484 -0.14273691
-0.04455519 -0.09599888 -0.098827384 0.0027589267 -0.21769007 -0.18493438 -0.033614516 -0.106072426
-0.0107654175 -0.11750454 -0.12362535 -0.1541795 0.015778845 -0.13045773 -0.06702037 0.14901152
0.038156975 -0.06456404 0.0023781476 0.02257892 -0.12688711 0.11039478 -0.10712761 0.05934513
-0.014203368 -0.16812432 0.009116682 -0.019863764 -0.021687493 0.116125844 -0.1801375 -0.018781116
-0.020633185 0.062462002 0.07528724 -0.15521792 -0.08739501 -0.12473126 0.014710725 -0.0334561
-0.018729834 -0.10106044 -0.0016488091 0.08779125 -0.15052482 -0.15180379 -0.05711786 0.122596785
0.013017718 0.030797929 -0.12988703 0.04321334 -0.12478603 0.05406565 0.08654457 0.02832756
0.04078274 -0.036960457 0.01616127 -0.06830869 0.015188171 -0.1489405 -0.1939552 0.069749944
-0.052027885 0.0022411488 0.05932393 -0.14380279 -0.071066216 0.18248923 0.0080833305 0.2135571
-0.14709587 -0.09566192 -0.123748906 0.033163812 -0.062099133 -0.12507394 -0.12865059 0.087761804
-0.014888351 -0.12156858 -0.15913314 0.10211628 0.018563768 0.04322141 -0.07186055 -0.14698422
0.015058384 -0.09004968 -0.12632902 0.04747555 0.12829715 0.14500795 -0.020427477 -0.12067899
00000000: ef7a 513d 4f3a cdbd 4b8d 373c 3b4c bebd
00000010: 8c6b e43d ffc3 f4bd 8fec 31bc 4a8c 9bbd
00000020: 1374 233d 2734 673d 20bb 983c a08e aebc
00000030: 7eb3 ae3d cac4 28be 2ace 60bd 0ab0 043c
00000040: 24e1 1c3e 6cbf 03be 709e c5bc 40c2 cfbd
00000050: 3923 d4bd 9f98 39bb 48ed b5bd a029 12be
00000060: 817f 36bd 109b c4bd 0366 cabd 1ccf 343b
00000070: 25ea 5ebe 705f 3dbe 60af 09bd 803c d9bd
00000080: 6f61 30bc 38a6 f0bd 4a2f fdbd 3be1 1dbe
00000090: a342 813c b696 05be fa41 89bd 7a96 183e
000000a0: 7d4a 1c3d 273a 84bd b2da 1b3b 6df7 b83c
000000b0: b2ee 01be a916 e23d b865 dbbd e113 733d
000000c0: 3eb5 68bc c828 2cbe 235e 153c 55b9 a2bc
000000d0: f8a9 b1bc 63d3 ed3d f775 38be dbda 99bc
000000e0: ed06 a9bc 28d8 7f3d 3230 9a3d 72f1 1ebe
000000f0: 28fc b2bd 1a73 ffbd 4105 713c 4309 09bd
00000100: 4f6f 99bc c7f8 cebd da1c d8ba e6cb b33d
00000110: 2e23 1abe 7472 1bbe 6bf4 69bd 0614 fb3d
00000120: 4448 553c f04b fc3c 1b01 05be 7900 313d
00000130: d18f ffbd f173 5d3d 483e b13d 330f e83c
00000140: cd0b 273d d963 17bd a464 843c 6de5 8bbd
00000150: ced7 783c dc83 18be 319c 46be 0fd9 8e3d
00000160: 311b 55bd 3de0 123b a6fd 723d 0a41 13be
00000170: 2a8b 91bd 75de 3a3e f26f 043c b6ae 5a3e
00000180: 4da0 16be 66ea c3bd 1170 fdbd c7d6 073d
00000190: a95b 7ebd 6213 00be fbbc 03be 76bc b33d
000001a0: 45ee 73bc f3f8 f8bd ccf3 22be 5722 d13d
000001b0: 0b13 983c ef08 313d a02b 93bd 0883 16be
000001c0: 71b7 763c f76b b8bd 655c 01be b975 423d
000001d0: 5460 033e f77c 143e 8657 a7bc 8c26 f7bd

layers.14.weight f4 [84, 120]
-0.14948648 -0.0052479235 0.058875464 0.007744822 -0.0061187483 -0.027871365 -0.061224118 -0.037789643
-0.071282215 -0.008182754 -0.06538519 0.009027753 -0.12552698 -0.074739456 -0.13514423 -0.008071327
-0.070828326 -0.1450551 0.051881637 -0.09770315 0.054890428 -0.1053495 0.074996695 0.06131153
-0.12925945 -0.07761624 -0.08029395 0.09157812 0.009324814 0.08717641 0.18605931 0.03992236
0.019866265 -0.1409615 -0.13141614 -0.00046399405 0.027121501 -0.033755805 -0.005360115 -0.03836589
0.02191063 -0.14711978 -0.10032587 -0.10197658 0.090878345 0.06009982 -0.09555936 0.025163215
-0.023050584 0.26759174 0.053774294 -0.07449371 -0.06713381 -0.010469365 -0.12058104 -0.09831581
0.029322583 0.005253781 -0.07147497 -0.08034736 0.045052808 0.05920656 -0.10090097 -0.010680354
0.035154648 -0.044063125 -0.013124325 0.0041526444 0.06561165 0.023708913 -0.04396581 -0.07482629
-0.1437963 -0.09514513 0.14373435 -0.06239512 0.046356477 -0.0718311 0.19133861 0.05070029
-0.054070838 -0.045272063 0.031332362 0.04346998 -0.11075603 0.0401094 -0.07476766 -0.11085419
-0.19485343 -0.08286678 -0.011180528 -0.1580392 -0.06747161 -0.05393554 0.016649425 -0.12697808
-0.003801799 0.046941906 0.0956489 0.031589154 0.011246512 0.04795056 -0.068882994 -0.044028267
0.07281969 0.12600216 -0.013412666 -0.04914706 0.08894049 0.44750112 -0.11900091 0.04781432
0.01054112 0.028931271 0.06457324 -0.0057831123 -0.008305271 -0.19245672 -0.011269353 0.030572478
0.06108465 -0.1338438 -0.006085193 -0.08992083 -0.15034418 -0.056675237 -0.041398697 -0.13175045
0.048314348 -0.0007509223 0.09636849 -0.06287319 -0.08605089 0.038283538 0.01579753 0.062359657
0.11147375 -0.05887634 0.028916907 0.051107336 -0.04534228 -0.024053682 -0.025520485 -0.004606569
-0.04878758 -0.15775776 -0.03819471 0.050999667 0.10465358 -0.050709084 -0.11045043 -0.06160707
-0.004641522 -0.102898985 -0.0761032 -0.16576271 -0.057855237 0.012940835 -0.049835894 0.025143992
0.04350805 -0.030017557 0.05374396 -0.1066152 0.06227029 0.06573885 -0.067306556 -0.21538521
0.11080217 0.10486805 0.070382066 -0.11393329 -0.03438799 -0.011629112 -0.031478398 0.01089346
-0.1068705 -0.07792536 0.14298327 -0.05454895 -0.11851836 -0.09063756 0.09980428 -0.09414793
0.0077313622 -0.05427556 -0.057576507 -0.0077610584 -0.024527736 0.07745224 -0.1162089 0.15367362
0.040792093 -0.038515963 0.103575505 0.10474179 -0.0071386956 0.032329027 -0.0027595041 -0.035697833
-0.070446394 -0.033747144 -0.029082809 0.0633198 0.02937055 0.0034472013 0.0133173 0.048805084
0.02637194 0.13733995 -0.0028944493 -0.011885907 -0.011130296 -0.01778717 -0.04308962 -0.03172309
0.109102115 -0.019265072 0.030086488 -0.06281466 0.05216589 0.05177296 -0.04988223 -0.025700934
0.071267225 -0.12585872 -0.14376146 0.055678714 -0.13437305 0.03789155 0.030991655 0.054906406
-0.14568444 -0.024076069 -0.047236644 0.11863223 0.020474019 0.028803712 -0.07261523 0.046130955
-0.059632793 0.042493973 -0.019967778 -0.083617456 0.02709465 0.07978308 -0.064729325 -0.03868683
0.10312885 0.09008467 0.022960931 0.14222774 0.059051447 -0.024051972 -0.050473813 -0.030260779
00000000: fc12 19be c6f6 abbb 6627 713d 47c8 fd3b
00000010: c87f c8bb 7d52 e4bc 24c6 7abd 50c9 1abd
00000020: 69fc 91bd f510 06bc ace8 85bd 24e9 133c
00000030: 258a 00be 0011 99bd 4063 0abe 993d 04bc
00000040: 710e 91bd 5389 14be d781 543d 9718 c8bd
00000050: c9d4 603d 7bc1 d7bd de97 993d cd21 7b3d
00000060: 975c 04be 43f5 9ebd 2871 a4bd 4f8d bb3d
00000070: 1bc7 183c 8c89 b23d 5586 3e3e a185 233d
00000080: 94be a23c 3658 10be f491 06be 3a44 f3b9
00000090: e92d de3c 8743 0abd e7a3 afbb 8d25 1dbd
000000a0: ec7d b33c 91a6 16be a677 cdbd 19d9 d0bd
000000b0: 6d1e ba3d 3b2b 763d a0b4 c3bd 1623 ce3c
000000c0: 94d4 bcbc c901 893e 6f42 5c3d 2990 98bd
000000d0: 737d 89bd b387 2bbc 31f3 f6bd cd59 c9bd
000000e0: ea35 f03c e927 ac3b 7861 92bd 288d a4bd
000000f0: 4b89 383d 9482 723d 2ba5 cebd a7fc 2ebc
00000100: 52fe 0f3d 897b 34bd 6907 57bc e812 883b
00000110: 675f 863d 3239 c23c 7e15 34bd 873e 99bd
00000120: 563f 13be 73db c2bd 192f 133e 0692 7fbd
00000130: 4ae0 3d3d 2f1c 93bd 45ee 433e 1bab 4f3d
00000140: 6279 5dbd 336f 39bd 5d56 003d 940d 323d
00000150: 0fd4 e2bd c149 243d c91f 99bd 8607 e3bd
00000160: a887 47be 0fb6 a9bd 892e 37bc 07d5 21be
00000170: 8e2e 8abd 83eb 5cbd 6064 883c 8b06 02be
00000180: 9a27 79bb 2846 403d 92e3 c33d a163 013d
00000190: 4a43 383c ce67 443d 8712 8dbd fc56 34bd
000001a0: 7d22 953d b606 013e ccc0 5bbc 6d4e 49bd
000001b0: 6e26 b63d de1e e53e c0b6 f3bd f3d8 433d
000001c0: a9b4 2c3c 4601 ed3c fa3e 843d 4380 bdbb
000001d0: d512 08bc 6013 45be 18a3 38bc 2273 fa3c
000001e0: e633 7a3d 590e 09be 4c66 c7bb 6a28 b8bd
000001f0: d3f3 19be 4b24 68bd ae91 29bd 97e9 06be
00000200: 44e5 453d 8bd9 44ba d85c c53d a9c3 80bd
00000210: 733b b0bd 33cf 1c3d d269 813c d76c 7f3d
00000220: 594c e43d 5128 71bd 26e3 ec3c ed55 513d
00000230: d4b8 39bd 3a0c c5bc 5610 d1bc b4f2 96bb
00000240: 7cd5 47bd 408b 21be 0e72 1cbd 07e5 503d
00000250: 9e54 d63d 54b4 4fbd d633 e2bd b257 7cbd
00000260: e917 98bb b4bc d2bd ffdb 9bbd b3bd 29be
00000270: 9df9 6cbd cc05 543c b920 4cbd c6fa cd3c
00000280: 7f35 323d 61e7 f5bc a022 5c3d 1259 dabd
00000290: 220f 7f3d 17a2 863d 05d8 89bd f18d 5cbe
000002a0: 40ec e23d 0fc5 d63d 7924 903d db55 e9bd
000002b0: 6cda 0cbd 0888 3ebc 7eef 00bd 7c7a 323c
000002c0: ecde dabd 5597 9fbd 356a 123e b86e 5fbd
000002d0: c1b9 f2bd 2fa0 b9bd 3066 cc3d a1d0 c0bd
000002e0: 5e57 fd3b 0d50 5ebd 58d5 6bbd 7a50 febb
000002f0: 64ee c8bc 489f 9e3d effe edbd 9e5c 1d3e
00000300: 9c15 273d eac2 1dbd 651f d43d dd82 d63d
00000310: b8eb e9bb 716b 043d ccd8 34bb e437 12bd
00000320: 3346 90bd 723a 0abd 123f eebc d0ad 813d
00000330: 829a f03c 71ea 613b ce30 5a3c d7e7 473d
00000340: f709 d83c d8a2 0c3e cdb0 3dbb 1bbd 42bc
00000350: d85b 36bc 66b6 91bc be7e 30bd 12f0 01bd
00000360: ee70 df3d c9d1 9dbc f077 f63c f9a4 80bd
00000370: e6ab 553d e20f 543d 4f51 4cbd c48a d2bc
00000380: 8df4 913d 1ce1 00be 3436 13be 5d0f 643d
00000390: 1799 09be 2c34 1b3d 36e2 fd3c 8ae5 603d
000003a0: 4d2e 15be 2d3b c5bc 367b 41bd 74f5 f23d
000003b0: 21b9 a73c c3f5 eb3c 4bb7 94bd d0f3 3c3d
000003c0: 8441 74bd 290e 2e3d 7793 a3bc a13f abbd
000003d0: 99f5 dd3c 5065 a33d cf90 84bd 1576 1ebd
000003e0: 3835 d33d 507e b83d 9018 bc3c 26a4 113e
000003f0: eedf 713d a408 c5bc a1bd 4ebd 74e5 f7bc

layers.14.bias f4 [84]
-0.069544524 0.033195972 0.124578 -0.007989628 -0.008388369 0.13313071 -0.10142022 -0.07909788
0.14493752 -0.049919087 -0.029609365 0.03237798 -0.061169643 0.04774946 0.18247026 -0.071758226
0.00878391 0.15300079 -0.17063826 0.047758203 -0.033653125 0.09836906 -0.025599187 -0.00091723754
0.044424165 -0.0832273 -0.058846153 -0.10204787 -0.001706785 0.091867395 -0.06858653 -0.06021388
0.013004514 -0.041275874 -0.0717675 -0.09360684 -0.052382696 0.03142582 0.020556346 -0.095626526
0.079411745 -0.12804048 0.026273586 -0.022988427 0.09842605 0.051017348 -0.08755329 0.060107
0.04100176 -0.07899062 0.059568938 -0.02627658 0.09519678 -0.053569183 -0.05156094 0.064848654
-0.116791934 -0.110592954 0.1649681 -0.022973483 0.10813201 -0.028640984 0.049216054 0.040366087
-0.15129618 0.07845414 -0.07269876 -0.05748238 -0.103937894 -0.026919536 0.079028085 0.005107705
-0.006107696 -0.08852361 -0.004532099 0.053032547 -0.041569714 -0.074899174 -0.03449022 0.1088548
-0.017747412 0.057752635 0.08049199 -0.009261344
00000000: 5c6d 8ebd 80f8 073d c022 ff3d eee6 02bc
00000010: 5f6f 09bc 6b53 083e 68b5 cfbd 12fe a1bd
00000020: 806a 143e f577 4cbd 578f f2bc c69e 043d
00000030: 058d 7abd f094 433d 7cd9 3a3e faf5 92bd
00000040: 64ea 0f3c 3dac 1c3e ccbb 2ebe 1b9e 433d
00000050: dcd7 09bd b875 c93d 63b5 d1bc c572 70ba
00000060: 1df6 353d 1373 aabd aa08 71bd 79fe d0bd
00000070: 34b6 dfba f924 bc3d 1877 8cbd d4a2 76bd
00000080: e310 553c e410 29bd d7fa 92bd f1b4 bfbd
00000090: 3d8f 56bd 5cb8 003d c865 a83c d7d7 c3bd
000000a0: a0a2 a23d 0b1d 03be b43b d73c 3a52 bcbc
000000b0: 9993 c93d 91f7 503d 244f b3bd c232 763d
000000c0: 76f1 273d d6c5 a1bd 8ffe 733d fb41 d7bc
000000d0: 88f6 c23d 5c6b 5bbd 9031 53bd 5fcf 843d
000000e0: 9c30 efbd 8f7e e2bd 66ed 283e e332 bcbc
000000f0: 5174 dd3d 7fa0 eabc c696 493d e956 253d
00000100: 63ed 1abe 90ac a03d 16e3 94bd a572 6bbd
00000110: 64dd d4bd 5c86 dcbc 7ad9 a13d 895e a73b
00000120: 1123 c8bb de4b b5bd 0082 94bb a838 593d
00000130: 0145 2abd bd64 99bd 9e45 0dbd 44ef de3d
00000140: 0563 91bc 078e 6c3d fcd8 a43d e4bc 17bc

layers.16.weight f4 [10, 84]
0.090574116 -0.060631357 -0.25710338 -0.20429431 -0.063759774 -0.05265502 -0.065510534 0.024387745
-0.091384985 -0.16536964 -0.06481858 0.053431254 -0.09413532 0.089868434 0.086306565 -0.05656054
0.08940574 -0.07784052 -0.15319268 -0.122398965 -0.08501368 0.0019867446 -0.06215705 -0.19335169
-0.12955405 -0.031973485 -0.13114487 0.041677326 -0.2822373 0.030894743 0.0719054 0.068067856
0.11567184 0.025218936 -0.06251984 0.13274395 -0.10977745 0.009371647 0.011305296 -0.12779498
-0.14146103 -0.06547051 -0.08924771 0.10124431 0.045915328 0.11422459 -0.0653849 0.06084636
-0.00766582 -0.014977391 -0.021110732 0.076814644 -0.0032968463 0.11114697 -0.13969128 -0.13794388
0.086107336 -0.047655564 0.053763524 0.05523441 0.11445149 -0.038774237 0.065727174 0.07465587
0.06254672 -0.123483784 -0.089946814 0.08761931 -0.024937214 -0.11497477 -0.08448916 -0.10344198
-0.14080204 0.0037452609 0.08104934 -0.17858328 0.06632501 -0.065985516 -0.10641217 -0.009406906
0.04282288 0.035893403 0.064493276 -0.004222728 -0.09471604 0.0057586646 0.047633916 0.035489254
-0.025462214 0.09793974 -0.29807743 0.016983174 -0.1158187 0.056778878 -0.07825623 -0.18135098
0.016360885 -0.11741477 0.10891161 -0.118995346 0.13873672 0.00068493054 -0.13457665 -0.07437983
0.039917856 0.13794205 0.067660145 -0.01865348 -0.09702961 -0.0018116612 0.019315876 -0.020668875
0.021741454 -0.15396617 -0.09786267 -0.03469128 -0.018167866 -0.095471494 -0.09256991 -0.22815238
0.0061121075 0.0053336094 -0.06290942 -0.005569541 0.099612914 -0.06980545 0.02420358 -0.053875256
0.044772726 0.039718453 -0.07465781 0.03243168 0.11639199 0.08448722 0.053188834 -0.0673653
0.027016606 -0.14439288 0.06959313 -0.016026344 1.0644893e-05 -0.054056972 0.069127105 -0.17854194
0.07055395 0.11438861 -0.044726618 0.019978238 0.06040274 -0.12622891 0.012940031 -0.040936757
0.0102238385 0.110674396 0.013170618 0.04187283 -0.073711194 -0.014383975 -0.087756544 0.056598045
-0.058483787 -0.109697685 0.050001338 -0.003920417 0.11687636 -0.028045826 -0.18833804 0.05034354
-0.02422964 0.07666337 0.059483435 -0.109885976 -0.15747693 -0.1857907 -0.019096196 -0.09027826
-0.0046401042 -0.0048187296 0.05691321 0.1513094 -0.013257243 -0.21199077 0.062213447 -0.009980349
-0.043097664 -0.085485734 -0.027111543 -0.051278107 0.08614684 -0.014773025 0.07967074 -0.1646186
-0.12476708 0.00596567 0.1259985 0.018638792 -0.039629634 0.031775653 0.1110585 -0.032781724
0.04516081 -0.048358273 -0.19469328 -0.033479493 0.024402943 -0.12882885 -0.09015559 -0.0868691
-0.037081923 -0.021956392 -0.06869779 -0.20544012 0.10442934 0.0806505 0.047529038 -0.048631143
-0.18699455 -0.1690267 0.043278243 0.041598544 0.051791184 0.015032279 0.0334144 -0.04499727
-0.08749532 0.010137984 -0.0046314322 0.04329635 -0.14560236 -0.16244264 0.01657817 0.054343402
-0.008397748 -0.077441834 -0.09406083 0.022799874 0.033787977 -0.110132344 0.07392593 -0.14493234
-0.21494819 0.034070503 0.06399388 0.051923998 0.06043603 -0.03270041 0.06960266 -0.0014199768
0.011252935 0.06164825 -0.11026497 0.019426176 -0.02640849 0.011257003 0.07167924 -0.21122666
00000000: ec7e b93d 9658 78bd 0ea3 83be 8732 51be
00000010: 7c94 82bd caac 57bd 632a 86bd cfc8 c73c
00000020: 0d28 bbbd a956 29be 9bbf 84bd bbda 5a3d
00000030: 05ca c0bd f10c b83d 7fc1 b03d 06ac 67bd
00000040: 5b1a b73d da6a 9fbd 8bde 1cbe 4fac fabd
00000050: a71b aebd 0b34 023b 6498 7ebd fcfd 45be
00000060: d1a9 04be a1f6 02bd d74a 06be d8b5 2a3d
00000070: 6881 90be f916 fd3c 2343 933d 2967 8b3d
00000080: 5ce5 ec3d f197 ce3c 670a 80bd 08ee 073e
00000090: 00d3 e0bd 898b 193c d939 393c b0dc 02be
000000a0: 29db 10be 6715 86bd 81c7 b6bd 2d59 cf3d
000000b0: b611 3c3d 95ee e93d 85e8 85bd 083a 793d
000000c0: 8f31 fbbb bb63 75bc 6af0 acbc ff50 9d3d
000000d0: e70f 58bb 06a1 e33d 3b0b 0fbe 2941 0dbe
000000e0: 0b59 b03d 7b32 43bd 2437 5c3d 7a3d 623d
000000f0: 8b65 ea3d bcd1 1ebd f89b 863d 2de5 983d
00000100: 7f18 803d 11e5 fcbd 0936 b8bd c171 b33d
00000110: 2149 ccbc e477 ebbd a708 adbd 64d9 d3bd
00000120: 692e 10be 0d73 753b 32fd a53d 89de 36be
00000130: 68d5 873d 6a23 87bd a0ee d9bd 6c1f 1abc
00000140: 0b67 2f3d f604 133d 0d15 843d cf5e 8abb
00000150: 7cfa c1bd 2eb3 bc3b c81b 433d 2e5d 113d
00000160: 2296 d0bc a194 c83d 9b9d 98be 4c20 8b3c
00000170: 5b32 edbd f890 683d cd44 a0bd 12b4 39be
00000180: 4307 863c 2877 f0bd 0d0d df3d d5b3 f3bd
00000190: 0011 0e3e e98c 333a 76ce 09be 7454 98bd
000001a0: e880 233d ae40 0d3e 6791 8a3d 2fcf 98bc
000001b0: 76b7 c6bd 4375 edba 543c 9e3c c651 a9bc
000001c0: 221b b23c 4fa9 1dbe 396c c8bd 7218 0ebd
000001d0: c7d4 94bc 8f86 c3bd 4b95 bdbd c7a0 69be
000001e0: 1348 c83b 8fc5 ae3b a7d6 80bd b280 b6bb
000001f0: db01 cc3d 29f6 8ebd 9646 c63c 4dac 5cbd
00000200: 9b63 373d d1af 223d 32e6 98bd 15d7 043d
00000210: ec5e ee3d a307 ad3d 89dc 593d d2f6 89bd
00000220: ee51 dd3c badb 13be d886 8e3d ae49 83bc
00000230: 7897 3237 d86a 5dbd 8392 8d3d b3d3 36be
00000240: 977e 903d 9344 ea3d 4233 37bd 67a9 a33c
00000250: dd68 773d 2742 01be 6c02 543c 4dad 27bd
00000260: e381 273c 42a9 e23d 93c9 573c d882 2b3d
00000270: e5f5 96bd c4aa 6bbc b4b9 b3bd 5ad3 673d
00000280: b28c 6fbd 2ea9 e0bd 34ce 4c3d d776 80bb
00000290: df5c ef3d 5cc0 e5bc b0db 40be 0735 4e3d
000002a0: 3d7d c6bc af01 9d3d e7a4 733d e60b e1bd
000002b0: a241 21be eb3f 3ebe a06f 9cbc cfe3 b8bd
000002c0: 040c 98bb 6fe6 9dbb d31d 693d daf0 1a3e
000002d0: e834 59bc 1c14 59be 87d3 7e3d 9e84 23bc
000002e0: 2d87 30bd 2513 afbd 0719 debc fe08 52bd
000002f0: c16d b03d 8f0a 72bc 6a2a a33d c791 28be
00000300: e285 ffbd ab7b c33b c005 013e 61b0 983c
00000310: af52 22bd 3027 023d a472 e33d 2146 06bd
00000320: 8bfa 383d 5313 46bd ad5d 47be cb21 09bd
00000330: aee8 c73c b6eb 03be 7ea3 b8bd 6de8 b1bd
00000340: 37e3 17bd e4dd b3bc 6db1 8cbd e55e 52be
00000350: 0ddf d53d 172c a53d cfad 423d 7331 47bd
00000360: 807b 3fbe 5615 2dbe 8744 313d 3c63 2a3d
00000370: fe22 543d f349 763c 8add 083d 0f4f 38bd
00000380: bf30 b3bd c919 263c 45c3 97bb 8357 313d
00000390: c918 15be 5d57 26be f1ce 873c 3097 5e3d
000003a0: b596 09bc d399 9ebd f7a2 c0bd cdc6 ba3c
000003b0: 4365 0a3d 118d e1bd 7a66 973d 2569 14be
000003c0: 611b 5cbe 838d 0b3d 390f 833d 42ae 543d
000003d0: c58b 773d ddf0 05bd d78b 8e3d 841e baba
000003e0: 3b5e 383c e082 7c3d 9ad2 e1bd a523 9f3c
000003f0: 9e56 d8bc 4b6f 383c 91cc 923d cd4b 58be

layers.16.bias f4 [10]
0.093177386 0.110300586 0.024178926 -0.003905469 -0.016185883 -0.0025973774 -0.13928333 0.11736782
0.12225661 -0.12730053
00000000: c9d3 be3d 46e5 e13d e212 c63c e6f2 7fbb
00000010: 4298 84bc c338 2abb 4aa0 0ebe 8a5e f03d
00000020: ac61 fa3d 125b 02be
