UCDavis_ECS189G/code/stage_3_code/result/CNN_model.pth.pth (torch, 503029 bytes, 16 tensors)

layers.0.weight f4 [6, 3, 3, 3]
-0.1038117 -0.4772007 -0.17076136 -0.323853 0.22400002 0.19656223 0.26419505 0.40695867
0.21825792 0.11269132 -0.4111231 -0.0424413 -0.29538643 0.13373765 0.10756057 -0.01147196
0.111276135 0.004873762 0.1760594 -0.062167734 0.21733016 -0.4765355 -0.12873447 0.12819529
0.29614958 0.09508688 -0.15272897 0.012048285 -0.03915721 -0.055389877 0.035158478 0.04260436
-0.03541521 -0.21691832 -0.027696991 0.21092929 0.2993536 0.16990122 0.057108928 0.14212959
0.2183548 0.006307945 -0.25874445 -0.07568388 0.056499645 0.19079922 -0.04494161 -0.17639503
0.04644972 0.16710223 0.025929142 0.028718371 0.07208934 -0.08998483 -0.07776699 -0.11636733
0.22539209 -0.012255867 -0.17316306 0.3816113 0.17793317 -0.1340764 0.45316434 -0.16152972
-0.2953206 0.16623822 0.14494832 -0.383823 0.1846314 -0.14607811 -0.5683161 0.2268557
0.3096141 -0.18593772 0.1362331 0.10234896 -0.35856375 0.09544694 0.24258791 -0.48931828
0.16241509 0.11695367 0.22246036 0.09610656 0.030336054 0.14956732 -0.13336675 0.19025902
-0.20480247 -0.35714418 -0.112940714 -0.082473256 -0.34270144 -0.26320618 -0.20769112 -0.19808507
-0.29047936 -0.049038056 0.029897034 0.30374596 -0.010663093 -0.063588776 0.21944317 0.26276407
0.28242123 0.1900539 0.26925704 0.31836468 -0.111285456 0.22762482 -0.3351072 0.08200755
0.036070403 -0.30864158 -0.038635843 -0.041390967 0.056509446 0.05183635 0.60496074 -0.2941407
0.40225855 -0.063698836 -0.23814857 0.049893655 -0.16269548 0.2610194 -0.2562916 0.5327046
-0.13777454 0.27717805 0.016893761 -0.4850886 0.030098753 -0.28418323 -0.013273482 0.029441185
-0.20153669 -0.38986778 -0.051125962 0.09474128 -0.13116838 -0.39286792 -0.2702736 -0.2757787
-0.215508 -0.0115159685 -0.08393327 -0.0867303 0.30514857 -0.030539833 -0.12826906 0.22527625
-0.024863968 0.005266328 0.034106746 0.012210637 0.34411567 0.45785144 0.25446668 -0.0020040248
0.18973537 0.21409121
00000000: 3b9b d4bd a653 f4be 11dc 2ebe 0fd0 a5be
00000010: 4360 653e 9c47 493e 9344 873e e35c d03e
00000020: 017f 5f3e b5ca e63d ba7e d2be eed6 2dbd
00000030: e43c 97be 86f2 083e b748 dc3d e3f4 3bbc
00000040: bee4 e33d 14b4 9f3b ea48 343e 98a3 7ebd
00000050: cc8b 5e3e 76fc f3be f8d2 03be a045 033e
00000060: eba0 973e e9bc c23d fc64 1cbe 2c66 453c
00000070: 5063 20bd 7fe0 62bd 5602 103d e981 2e3d
00000080: 8a0f 11bd d61f 5ebe cde4 e2bc d9fd 573e
00000090: e044 993e 96fa 2d3e 0deb 693d 6b8a 113e
000000a0: 6798 5f3e e1b2 ce3b 277a 84be 2600 9bbd
000000b0: 2c6c 673d df60 433e b214 38bd e6a0 34be
000000c0: 1042 3e3d d91c 2b3e 5a69 d43c ca42 eb3c
000000d0: 93a3 933d f749 b8bd 4d44 9fbd ff51 eebd
000000e0: 2fcd 663e d5cc 48bc a851 31be 8e62 c33e
000000f0: 1d34 363e 534b 09be 2805 e83e 0c68 25be
00000100: 4334 97be 5a3a 2a3e 556d 143e 7384 c4be
00000110: 0410 3d3e 8095 15be 2a7d 11bf dc4c 683e
00000120: bd85 9e3e 7566 3ebe b180 0b3e 559c d13d
00000130: ab95 b7be af79 c33d f768 783e ed87 fabe
00000140: 2450 263e 6885 ef3d a6cc 633e 84d3 c43d
00000150: 5183 f83c 2d28 193e 4b91 08be 43d3 423e
00000160: bdb7 51be 9adb b6be 764d e7bd bde7 a8bd
00000170: 9076 afbe f6c2 86be fbac 54be d0d6 4abe
00000180: b6b9 94be 21dc 48bd a0ea f43c 9784 9b3e
00000190: 41b4 2ebc d53a 82bd b6b5 603e 0389 863e
000001a0: 8499 903e 7d9d 423e 0fdc 893e b200 a33e
000001b0: a1e9 e3bd 7b16 693e 2c93 abbe 93f3 a73d
000001c0: 8fbe 133d 4506 9ebe 9e40 1ebd 9389 29bd
000001d0: 7376 673d 5a52 543d b5de 1a3f 9c99 96be
000001e0: d5f4 cd3e 8974 82bd 38dd 73be 4a5d 4c3d
000001f0: a599 26be 56a4 853e a738 83be 545f 083f
00000200: c514 0dbe 48ea 8d3e c964 8a3c 885d f8be
00000210: a991 f63c 7780 91be 0579 59bc a42e f13c
00000220: a25f 4ebe c09c c7be 7569 51bd b707 c23d
00000230: 0151 06be fc25 c9be 4d61 8abe de32 8dbe
00000240: 21ae 5cbe 79ad 3cbc 35e5 abbd a89f b1bd
00000250: 6f3c 9c3e ac2e fabc f758 03be d1ae 663e
00000260: 85af cbbc 2991 ac3b 84b3 0b3d 200f 483c
00000270: ee2f b03e 816b ea3e 7549 823e f555 03bb
00000280: fd49 423e ba3a 5b3e

layers.0.bias f4 [6]
0.43268317 -2.6297944 0.41230375 -1.1103299 1.538643 -0.17899351
00000000: a688 dd3e 8d4e 28c0 7a19 d33e 4a1f 8ebf
00000010: 41f2 c43f 134a 37be

layers.3.weight f4 [16, 6, 3, 3]
-0.25997218 -0.38802928 0.42031628 0.1599176 0.6087475 0.30222824 0.39613116 0.09452667
-0.5441506 0.050388876 0.011661027 0.0040476546 -0.08777849 -0.24830496 -0.062517755 -0.19770236
-0.032619894 0.19063915 -0.03213709 -0.0022888512 0.27162063 0.11364135 0.02154992 -0.12801091
-0.1551376 -0.24206492 -0.08117361 -0.11724526 0.16482377 0.0030591295 -0.026016198 -0.12570749
0.032174457 0.0039342367 -0.023470212 0.2726489 0.2316414 0.43748772 0.28939548 0.43842846
-0.20945977 -0.120710805 -0.46933535 0.0066106888 -0.043094005 0.18391262 -0.103924066 0.037957072
0.009126378 -0.21120068 -0.043907553 0.025430767 0.11233999 -0.045573603 -0.11513694 0.047838073
0.019174607 -0.083750166 0.21255209 -0.3827987 0.024816845 0.1882117 -0.046287432 0.013200234
-0.06492635 0.0036138622 -0.14904495 0.06773146 0.2555338 0.13582976 -0.16682203 0.05827626
-0.18033342 -0.051992573 0.051289666 -0.4842384 -0.22602339 0.117369965 -0.14977218 -0.16846325
-0.040049817 -0.23579304 -0.8423922 -0.7271239 -0.50109005 -0.7773159 -0.6507895 -0.081121296
-0.03811835 -0.03580924 0.120205045 0.12531751 0.031025538 0.20632166 0.4795436 0.317837
0.21374665 -0.42332512 0.016150635 0.11122396 -0.041746456 0.053706504 0.031858165 -0.04620735
-0.14803897 0.17506981 -0.15915805 0.10200333 -0.35842586 -0.18436165 0.16178338 -0.3356569
-0.23117474 0.01902388 0.19555946 -0.18893017 0.18260723 -0.16488674 -0.008245742 0.070880376
-0.3845103 -0.08342595 -0.046152294 -0.0013143216 -0.8554537 -0.16635017 -0.20321041 0.104641594
-0.13641445 -0.19122379 0.20271714 -0.12620056 -0.46968222 0.22259557 0.58615416 -0.35136113
-0.06962249 0.0027847493 -0.021040993 0.2992991 0.20412564 -0.010800633 -0.020352839 0.16574399
-0.09442951 0.17452268 -0.019703498 0.11260956 0.12698801 0.18506615 0.009231189 -0.36850893
0.011112026 -0.59565556 0.31729537 0.39718574 -0.43507516 0.29090917 0.39858216 -0.31402358
-0.33750337 0.3833497 0.04922902 0.3091143 0.35435638 -0.77697754 -0.6485524 -0.3868221
0.32906365 0.28628471 0.16973487 0.10201381 0.17957985 0.1368848 0.14870173 0.21543042
0.23572604 -0.25037956 -0.33949807 -0.3417537 0.17064342 0.22679774 -0.0051485025 -0.74344856
-0.7202239 -0.25751397 -0.13046297 -0.072514415 0.0068645803 0.057181906 -0.048582014 -0.02297345
0.049939375 0.1718113 0.0018851972 -0.0643392 -0.26109782 -0.10410135 -0.06577276 -0.19737847
-0.13554877 -0.21157132 0.096907735 0.14851958 0.022106476 -0.09265795 0.039472476 -0.13684767
0.0746573 -0.058995664 -0.021219911 0.08524337 -0.0034775282 -0.0038269337 0.052094415 0.056926254
0.24831975 0.24833453 0.087070905 -0.20627116 -0.109415784 0.16327982 0.12709378 -0.35375962
-0.013143521 0.114907034 -0.35446438 -0.63420814 0.25984752 0.10810811 -0.11871282 0.2119474
0.13954936 0.19708893 -0.48443052 0.059341535 0.15677 -0.19437987 -0.6071536 -0.17754115
0.19686641 -0.13143334 -0.1232229 0.22216116 -0.25847518 -0.48640698 0.32471496 0.23377232
0.09338997 -0.09636884 0.06849895 0.11076287 0.014894621 0.030630276 0.0026430285 -0.29127634
00000000: 131b 85be c6ab c6be b233 d73e 70c1 233e
00000010: e0d6 1b3f a9bd 9a3e b4d1 ca3e 3397 c13d
00000020: 744d 0bbf 9164 4e3d e40d 3f3c 30a2 843b
00000030: 35c5 b3bd a843 7ebe 4f09 80bd 7d72 4abe
00000040: 709c 05bd e936 433e 2ea2 03bd 8d00 16bb
00000050: dc11 8b3e ccbc e83d 7589 b03c 4b15 03be
00000060: 64dc 1ebe dedf 77be 5a3e a6bd 481e f0bd
00000070: 90c7 283e ad7b 483b ec1f d5bc 77b9 00be
00000080: 5dc9 033d c5ea 803b 9a44 c0bc a398 8b3e
00000090: 6733 6d3e 64fe df3e a52b 943e b279 e03e
000000a0: 9f7c 56be 3a37 f7bd b94c f0be 7a9e d83b
000000b0: 5783 30bd 9753 3c3e 24d6 d4bd e078 1b3d
000000c0: ce86 153c fe44 58be 68d8 33bd 2f54 d03c
000000d0: 8212 e63d 63ab 3abd eacc ebbd dbf1 433d
000000e0: 1114 9d3c 3585 abbd 41a7 593e 31fe c3be
000000f0: b24c cb3c 91ba 403e e497 3dbd cb45 583c
00000100: 1bf8 84bd 8cd6 6c3b 3d9f 18be cbb6 8a3d
00000110: 54d5 823e f516 0b3e 65d3 2abe 16b3 6e3d
00000120: 53a9 38be 2af6 54bd 1d15 523d 18ee f7be
00000130: ad72 67be aa5f f03d e15d 19be a181 2cbe
00000140: 470b 24bd bb73 71be 04a7 57bf cb24 3abf
00000150: 7047 00bf 2dfe 46bf 249a 26bf ec22 a6bd
00000160: fd21 1cbd b6ac 12bd 102e f63d 3c53 003e
00000170: 4529 fe3c fc45 533e bd86 f53e 88bb a23e
00000180: 67e0 5a3e 12be d8be 564e 843c 63c9 e33d
00000190: 55fe 2abd 5afb 5b3d b57d 023d eb43 3dbd
000001a0: 8797 17be 8045 333e 54fa 22be 1fe7 d03d
000001b0: 9883 b7be 4dc9 3cbe 8baa 253e 39db abbe
000001c0: 12b9 6cbe f8d7 9b3c bd40 483e e976 41be
000001d0: 64fd 3a3e 12d8 28be 2619 07bc bb29 913d
000001e0: 89de c4be 39db aabd 300a 3dbd 5145 acba
000001f0: 04ff 5abf b357 2abe 6416 50be 554e d63d
00000200: 3bb0 0bbe 2bd0 43be 1595 4f3e b83a 01be
00000210: 307a f0be 18f0 633e 330e 163f 9be5 b3be
00000220: 3c96 8ebd 5780 363b 295e acbc bb3d 993e
00000230: 5006 513e 23f5 30bc ffba a6bc cbb8 293e
00000240: 4264 c1bd 13b6 323e 3b69 a1bc d79f e63d
00000250: 2509 023e fb81 3d3e 6a3e 173c 34ad bcbe
00000260: 370f 363c e27c 18bf 8a74 a23e ee5b cb3e
00000270: 2cc2 debe 0cf2 943e f612 cc3e b3c7 a0be
00000280: 3ecd acbe 6946 c43e 5ea4 493d 3b44 9e3e
00000290: 336e b53e 00e8 46bf 8807 26bf 8c0d c6be
000002a0: 087b a83e e993 923e face 2d3e 9eec d03d
000002b0: c8e3 373e 872b 0c3e 4445 183e cb99 5c3e
000002c0: 2b62 713e c031 80be b1d2 adbe 57fa aebe
000002d0: 26bd 2e3e ab3d 683e c5b4 a8bb a552 3ebf
000002e0: 9860 38bf dfd8 83be 1698 05be 7082 94bd
000002f0: 46f0 e03b 9337 6a3d effd 46bd d132 bcbc
00000300: 3b8d 4c3d 4def 2f3e b918 f73a 45c4 83bd
00000310: 9dae 85be 1733 d5bd deb3 86bd 951d 4abe
00000320: 4ccd 0abe 27a6 58be 9077 c63d 8415 183e
00000330: a418 b53c 74c3 bdbd e4ad 213d cc21 0cbe
00000340: ede5 983d 70a5 71bd 61d5 adbc 1394 ae3d
00000350: 3ee7 63bb 4bcd 7abb f460 553d 812b 693d
00000360: 8847 7e3e 684b 7e3e 3b52 b23d bf38 53be
00000370: 6215 e0bd d332 273e df24 023e fb1f b5be
00000380: ec57 57bc 6154 eb3d 5b7c b5be 775b 22bf
00000390: bc0a 853e c967 dd3d b51f f3bd bd08 593e
000003a0: 07e6 0e3e aed1 493e 4707 f8be 1c10 733d
000003b0: 5188 203e 840b 47be 6b6e 1bbf 59cd 35be
000003c0: 5997 493e 7696 06be 4a5c fcbd 377e 633e
000003d0: dc56 84be 560a f9be 0a41 a63e 0362 6f3e
000003e0: 3e43 bf3d 075d c5bd 2d49 8c3d a5d7 e23d
000003f0: 9208 743c 58ec fa3c a936 2d3b 2c22 95be

layers.3.bias f4 [16]
-0.82728565 1.115175 1.1932322 -0.20807175 -1.3335683 -0.1825358 -0.10706188 0.41405746
1.70081 1.2566446 0.00877288 0.26743588 -1.0013254 0.31477717 -0.70309204 0.16353296
00000000: fec8 53bf 0ebe 8e3f d5bb 983f c310 55be
00000010: 5eb2 aabf aaea 3abe 4243 dbbd 57ff d33e
00000020: 24b4 d93f bbd9 a03f 20bc 0f3c 5bed 883e
00000030: 6e2b 80bf 792a a13e d7fd 33bf 2f75 273e

layers.6.weight f4 [32, 16, 3, 3]
-0.12300071 -0.09061387 0.074304014 -0.01491805 -0.2182384 0.04376497 -0.0811426 -0.05483868
-0.122013964 -0.2236509 -0.122365974 0.10458558 -0.037021637 0.055254985 0.23129633 -0.037916016
0.08748387 0.10253005 -0.2000937 -0.04097889 0.061730307 0.13523203 -0.06107897 0.036668465
-0.015169113 -0.5263113 -0.024596093 -0.50653946 0.013303077 0.6328048 -0.6409501 0.16692051
0.34872872 -0.1529309 0.29740128 0.49689007 0.070891745 0.3181626 0.059883714 -0.1266151
-0.2388041 -0.12573965 -0.1025103 0.113947436 0.112564325 0.1188544 0.27526125 0.42628407
-0.6328301 0.33111715 -0.04700444 -0.16586547 0.08707439 -0.49469304 0.18790343 0.44100398
-0.20662919 0.25922787 0.5120226 -0.42528477 -0.2603509 0.2852033 -0.2869014 0.06887977
-0.051346965 -0.023098627 -0.13653576 0.17784974 -0.4000461 -0.39329848 0.20121028 0.058076218
-0.3944845 -0.099882856 -0.034181245 -0.28302056 -0.30305097 0.005474344 0.13237192 0.09808998
0.11739163 -0.10833295 -0.07423186 -0.080744185 -0.18687972 -0.3794227 -0.18397044 -0.46836907
-0.4727094 0.01619224 0.20256698 -0.00419032 -0.012246565 0.23154616 -0.26339036 -0.28726926
0.34686548 -0.3159957 -0.10119961 -0.681096 -0.6879381 -0.19675623 0.23489597 0.11933673
0.18509062 0.19201235 0.22721586 0.2382912 0.07934122 -0.0835088 -0.039763313 -0.31792405
0.3061964 0.40742153 -0.31999788 0.024792079 0.375351 -0.08809825 0.31119233 0.179044
0.008238439 -0.058554616 0.12767744 -0.37143046 -0.01826392 -0.2752241 -0.23479024 0.3827189
0.20934218 -0.59440583 0.12652583 -0.2486324 -0.63648397 0.1433895 0.08464217 0.3676642
-0.19774756 -0.4256377 0.24407372 0.23111589 -0.33176863 0.123847425 0.14920993 -0.18257079
-0.21042931 -0.09744245 -0.28452986 0.30506593 0.1921019 -0.10866987 0.007660302 0.09270011
0.030716635 0.11543118 -0.010868216 0.148672 -0.13320585 -0.19977273 -0.22670896 -0.31425726
-0.19378294 -0.36392665 -0.13319789 -0.32052538 0.117696345 -0.0681833 -0.15041843 -0.20073701
-0.39617985 0.27719897 -0.21750925 -0.1645762 0.26117787 -0.21081303 0.0868284 0.11458897
-0.36440197 0.055546768 0.31081685 -0.48577195 -0.4343244 -0.18007198 -0.023772987 0.16812599
-0.007466565 -0.2377736 0.34411266 0.75126654 0.14175665 0.1773455 0.169219 0.16754769
-0.036385216 0.28347963 -0.120661184 0.03863204 0.26375875 -0.02596989 0.095696054 0.09803019
0.0053223944 0.15500133 -0.53874964 0.13355838 0.13388366 -0.14434546 0.28708345 0.0919301
-0.22327527 -0.13965328 -0.14475086 -0.32444948 -0.28839973 0.038215917 -0.09509957 0.019640116
-0.38237193 -0.27164912 -0.3543514 0.07722831 0.24180555 -0.29911333 0.092699245 0.083140135
-0.08383857 -0.031854957 0.23093419 0.23945425 0.038596664 -0.22195885 0.046620023 0.1555693
0.039953686 -0.42655307 0.45637244 -0.09066782 0.16386232 -0.3077739 -0.62280065 0.15340358
-0.48900414 -0.23374285 0.17655264 -0.21846278 0.14534034 -0.19838576 -0.41136354 -0.14253937
-0.09382964 -0.17782746 -0.45839095 0.18349332 -0.49936208 0.01653456 -0.28148693 0.0054566837
00000000: cce7 fbbd c493 b9bd b42c 983d d66a 74bc
00000010: e379 5fbe e642 333d 172e a6bd 869e 60bd
00000020: 75e2 f9bd be04 65be 039b fabd f730 d63d
00000030: 00a4 17bd 0d53 623d f2d8 6c3e d34d 1bbd
00000040: be2a b33d 46fb d13d 5de5 4cbe 7bd9 27bd
00000050: ebd8 7c3d 447a 0a3e f12d 7abd ac31 163d
00000060: df87 78bc 56bc 06bf bf7d c9bc 92ac 01bf
00000070: 26f5 593c 7fff 213f 4e15 24bf 36ed 2a3e
00000080: 928c b23e eb99 1cbe fb44 983e 6068 fe3e
00000090: b12f 913d 35e6 a23e a048 753d 64a7 01be
000000a0: 1089 74be e5c1 00be ecf0 d1bd 465d e93d
000000b0: 2088 e63d f069 f33d 0bef 8c3e e841 da3e
000000c0: 2701 22bf 3088 a93e ba87 40bd a3d8 29be
000000d0: 0f54 b23d 6848 fdbe c269 403e 46cb e13e
000000e0: 9a96 53be 84b9 843e ea13 033f edbe d9be
000000f0: b74c 85be 2b06 923e bee4 92be d610 8d3d
00000100: 3251 52bd 5539 bdbc 08d0 0bbe 3e1e 363e
00000110: d8d2 ccbe 6b5e c9be 110a 4e3e 54e1 6d3d
00000120: dff9 c9be 628f ccbd a201 0cbd 12e8 90be
00000130: 7f29 9bbe 2062 b33b 818c 073e 66e3 c83d
00000140: 066b f03d aadd ddbd e006 98bd 355d a5bd
00000150: 665d 3fbe b143 c2be bf62 3cbe 12ce efbe
00000160: f706 f2be 97a5 843c b86d 4f3e f44e 89bb
00000170: d1a5 48bc 701a 6d3e 1adb 86be f514 93be
00000180: 5a98 b13e 30ca a1be be41 cfbd 4f5c 2ebf
00000190: b61c 30bf 777a 49be 9288 703e d166 f43d
000001a0: 6588 3d3e e39e 443e 46ab 683e 9c02 743e
000001b0: a67d a23d a906 abbd dbde 22bd f1c6 a2be
000001c0: c6c5 9c3e 8e99 d03e c3d6 a3be c218 cb3c
000001d0: 022e c03e db6c b4bd 9a54 9f3e 4f57 373e
000001e0: 85fa 063c f7d6 6fbd e0bd 023e 222c bebe
000001f0: 379e 95bc 2cea 8cbe da6c 70be bbf3 c33e
00000200: cc5d 563e fb2a 18bf fd8f 013e 7e99 7ebe
00000210: 9df0 22bf b2d4 123e e058 ad3d 7b3e bc3e
00000220: 567e 4abe 2fed d9be 76ee 793e a5a9 6c3e
00000230: 94dd a9be b8a3 fd3d 7dca 183e d6f3 3abe
00000240: c87a 57be e88f c7bd e6ad 91be 9a31 9c3e
00000250: 5cb6 443e 4f8e debd 4503 fb3b 8ed9 bd3d
00000260: 74a1 fb3c 2f67 ec3d 9a10 32bc 793d 183e
00000270: 1d67 08be 3991 4cbe 6526 68be 54e6 a0be
00000280: 096f 46be 9854 babe 0765 08be e71b a4be
00000290: c80a f13d b0a3 8bbd 4a07 1abe 018e 4dbe
000002a0: 16d8 cabe 06ed 8d3e bfba 5ebe aa86 28be
000002b0: 1bb9 853e 5fdf 57be 17d3 b13d 9fad ea3d
000002c0: e592 babe 0285 633d 6323 9f3e 1ab7 f8be
000002d0: c55f debe ca64 38be 91bf c2bc 3829 2c3e
000002e0: 16aa f4bb ec7a 73be 892f b03e 0153 403f
000002f0: a828 113e 0f9a 353e bf47 2d3e 9f91 2b3e
00000300: aa08 15bd 3e24 913e 361d f7bd a13c 1e3d
00000310: 630b 873e cfbe d4bc 4bfc c33d 0dc4 c83d
00000320: 7b67 ae3b abb8 1e3e 7feb 09bf 87c3 083e
00000330: cc18 093e 4ccf 13be 9afc 923e d945 bc3d
00000340: 46a2 64be 4501 0fbe 9239 14be 3e1e a6be
00000350: 21a9 93be 4b88 1c3d 90c3 c2bd 4fe4 a03c
00000360: 41c6 c3be 9815 8bbe 8c6d b5be e029 9e3d
00000370: e09b 773e 6225 99be 1ad9 bd3d 6045 aa3d
00000380: 8eb3 abbd 587a 02bd 037a 6c3e 7f33 753e
00000390: 8917 1e3d 2e49 63be a3f4 3e3d 8f4d 1f3e
000003a0: 7aa6 233d 2a65 dabe a6a9 e93e 0db0 b9bd
000003b0: 86cb 273e 8a94 9dbe dd6f 1fbf d415 1d3e
000003c0: c05e fabe 495a 6fbe 37ca 343e b5b4 5fbe
000003d0: 19d4 143e a325 4bbe 3e9e d2be d7f5 11be
000003e0: c129 c0bd 6718 36be 38b2 eabe ace5 3b3e
000003f0: 63ac ffbe 7c73 873c 0e1f 90be fbcd b23b

layers.6.bias f4 [32]
-1.1860089 -0.9027868 -1.3850291 1.4090763 -0.8317211 0.2996608 1.2977383 1.2940714
-1.1113667 0.3152304 1.2465605 0.5081071 0.38525197 0.5729649 0.6358796 0.013814355
1.6422107 0.18437912 0.3198041 0.715706 -1.3730915 -1.2552179 0.60318005 -0.8784014
0.9001338 0.04706338 -1.50967 1.5055194 0.696918 -0.7618684 0.49168783 -1.5702573
00000000: 24cf 97bf 091d 67bf a248 b1bf 9d5c b43f
00000010: adeb 54bf 246d 993e 4a1c a63f 22a4 a53f
00000020: 4441 8ebf e165 a13e 4b8f 9f3f 4f13 023f
00000030: bf3f c53e d4ad 123f 01c9 223f 9b55 623c
00000040: f633 d23f e1cd 3c3e 5dbd a33e 8238 373f
00000050: 76c1 afbf fbaa a0bf 026a 1a3f eade 60bf
00000060: 2b6f 663f 88c5 403d de3c c1bf dcb4 c03f
00000070: 3869 323f cf09 43bf 82be fb3e 31fe c8bf

layers.9.weight f4 [64, 32, 3, 3]
0.47028106 0.19062921 -0.06973319 0.07143448 0.19235565 0.21864524 0.14672013 0.2615689
-0.08524928 -0.0041434485 -0.19507638 -0.3269273 0.26350814 0.45498374 0.07767455 0.25677207
-0.11337968 0.36318383 -0.23952535 0.0903429 0.4500291 0.096812084 -0.060941882 0.08929155
0.03673562 -0.21395794 -0.06804279 -0.14686689 0.04516381 0.0152882105 0.3860302 0.22663336
0.117290825 0.06118084 0.24024394 0.15233038 0.0028906201 -0.092684105 -0.09254565 -0.12445473
0.039939918 -0.043000188 -0.096688084 -0.075394526 0.167542 -0.245232 -0.08021552 -0.03370852
0.14026836 0.06366718 -0.19463858 0.0473518 -0.306627 0.10413479 -0.46873155 0.39920676
-0.04055062 0.05032385 -0.38797793 0.03913987 0.028622843 -0.21361193 0.14917412 -0.13893898
-0.46394956 -0.32587874 -0.17852645 0.23037697 0.16521391 0.081076376 -0.23429872 -0.05086917
0.26377892 0.06826091 -0.37936682 0.16341966 -0.09468765 0.04829503 -0.028738946 0.32941145
0.27031428 -0.4203841 -0.17689054 0.3074942 0.22339633 -0.17999697 0.19157465 0.15059415
-0.039808847 0.16201551 -0.024305092 -0.10821048 -0.20583247 0.005080205 0.24973606 -0.041633934
0.0599332 0.046299983 0.38386157 0.07419184 0.11304972 0.1919155 0.32765186 0.22197343
-0.18172242 -0.21616334 -0.2624617 -0.39627564 -0.23762357 0.30236077 -0.16343692 -0.15901013
-0.7676013 -0.5388047 0.014681177 -0.011499918 0.21420413 -0.120427646 0.16675623 -0.073264964
-0.20611253 -0.15037414 -0.20611003 -0.07109386 0.03946152 -0.36289176 -0.027183525 0.17032795
0.091478996 -0.07061121 -0.24527991 0.2536321 -0.57715255 -0.5676971 -0.7020535 -0.30740786
-0.46079966 -0.03632794 -0.05542827 0.23877436 -0.23760523 0.054661028 -0.40429837 -0.070896424
-0.0028037638 0.3253693 0.021029906 -0.38931745 -0.9560995 -0.061077382 -0.033020917 -0.06301189
0.21264763 -0.10478346 -0.37527546 0.2895253 -0.41562766 -0.35278928 -0.40310547 0.1439389
-0.20891002 -0.022661252 -0.5376513 0.080093674 0.20828201 -0.08063195 0.49968386 0.16407192
-0.016005179 0.114629366 0.032524824 0.16284233 -0.37126327 0.2222149 0.008383591 -0.1982086
-0.15521967 -0.09998451 0.022360781 0.33574355 -0.04188568 0.0006554298 0.022076596 -0.8753934
-0.25716823 0.11149632 -0.2368929 -0.029853927 -0.078077145 0.5120844 -0.011166861 -0.24557856
-0.6930733 0.109450035 0.30966878 -0.24063176 -0.34324563 -0.25741065 -0.33216387 0.09362944
0.29113492 0.30003455 -0.003992092 -0.3974173 0.177552 -0.22237031 -0.2776665 -0.20038737
-0.52264565 -0.055428214 -0.40931532 -0.005621777 0.039463535 0.17139024 -0.0072574196 0.25997493
-0.6578412 -0.253926 -0.40887544 -0.17188466 -0.23143029 0.18059896 0.111526124 -0.31980506
-0.37157294 -0.3059457 -0.28847095 0.043004114 -0.06155289 0.1563512 0.10349766 -0.38262984
-0.44380918 -0.04500235 -0.47238952 0.07636909 0.39610815 -0.05144705 -0.3868147 0.17143852
0.06545377 0.10429413 0.053592086 -0.17821641 0.44066843 0.3709265 -0.06627574 -0.088364996
-0.0031821483 0.22217499 -0.031261064 0.04036103 -0.20055786 0.18304117 -0.16162309 -0.104281366
00000000: aec8 f03e 4e34 433e 46d0 8ebd 3e4c 923d
00000010: e1f8 443e 8ae4 5f3e cd3d 163e 5cec 853e
00000020: 2d97 aebd c4c5 87bb 1ac2 47be 0463 a7be
00000030: 8aea 863e a1f3 e83e d613 9f3d a177 833e
00000040: 9b33 e8bd 3bf3 b93e 2246 75be b305 b93d
00000050: 376a e63e 6a45 c63d 329e 79bd 7dde b63d
00000060: 1778 163d ca17 5bbe 055a 8bbd 4664 16be
00000070: b0fd 383d 677b 7a3c c0a5 c53e 9312 683e
00000080: 2c36 f03d c398 7a3d 8202 763e 7ffc 1b3e
00000090: 8f70 3d3b 2ad1 bdbd 9388 bdbd 1fe2 febd
000000a0: 0a98 233d f720 30bd 6704 c6bd 7268 9abd
000000b0: 2190 2b3e 191e 7bbe 0948 a4bd f211 0abd
000000c0: 82a2 0f3e f063 823d 564f 47be f6f3 413d
000000d0: 37fe 9cbe 9f44 d53d 95fd efbe d464 cc3e
000000e0: 6818 26bd 6220 4e3d 0ba5 c6be 2151 203d
000000f0: 747a ea3c 16bd 5abe 1ac1 183e 0546 0ebe
00000100: cc8a edbe 94d9 a6be a3cf 36be f1e7 6b3e
00000110: d62d 293e 5f0b a63d 01ec 6fbe 315c 50bd
00000120: 080e 873e 60cc 8b3d 5e3c c2be 7c57 273e
00000130: 99eb c1bd 02d1 453d f06d ebbc 9ea8 a83e
00000140: a266 8a3e 963c d7be cb22 35be e16f 9d3e
00000150: 02c2 643e 2051 38be 252c 443e 5a35 1a3e
00000160: 9a0e 23bd 65e7 253e 791b c7bc 759d ddbd
00000170: bfc5 52be d977 a63b cfba 7f3e 5888 2abd
00000180: 847c 753d 0da5 3d3d 8189 c43e e4f1 973d
00000190: 9d86 e73d 7f85 443e fcc1 a73e 014d 633e
000001a0: 7115 3abe ec59 5dbe 6161 86be a4e4 cabe
000001b0: 9853 73be 08cf 9a3e 025c 27be 8dd3 22be
000001c0: 8581 44bf 1bef 09bf 5289 703c 276a 3cbc
000001d0: 5458 5b3e c5a2 f6bd 25c2 2a3e f10b 96bd
000001e0: 2a0f 53be aefb 19be 820e 53be a899 91bd
000001f0: 67a2 213d f3cc b9be fcaf debc 736a 2e3e
00000200: 5759 bb3d 9c9c 90bd a82a 7bbe 11dc 813e
00000210: 45c0 13bf 9954 11bf c7b9 33bf 9064 9dbe
00000220: efed ebbe 9bcc 14bd c108 63bd 4481 743e
00000230: c94e 73be 3ee4 5f3d 3200 cfbe 2532 91bd
00000240: 5abf 37bb ce96 a63e e946 ac3c 9e54 c7be
00000250: f0c2 74bf 472c 7abd f140 07bd 610c 81bd
00000260: 4dc0 593e b698 d6bd 1b24 c0be a93c 943e
00000270: 26cd d4be cca0 b4be d763 cebe b864 133e
00000280: 82ec 55be 17a4 b9bc 84a3 09bf 2708 a43d
00000290: e147 553e 5d22 a5bd 90d6 ff3e 7802 283e
000002a0: 4b1d 83bc cdc2 ea3d c038 053d 24c0 263e
000002b0: 3816 bebe 4e8c 633e 545b 093c 32f7 4abe
000002c0: e8f1 1ebe aec4 ccbd f52d b73c 94e6 ab3e
000002d0: 5290 2bbd 26d1 2b3a fad9 b43c c819 60bf
000002e0: 8eab 83be 2f58 e43d 0d94 72be 3990 f4bc
000002f0: e9e6 9fbd f717 033f 36f5 36bc f278 7bbe
00000300: 406d 31bf 5727 e03d e88c 9e3e 2c68 76be
00000310: e4bd afbe 54cb 83be 6211 aabe cbc0 bf3d
00000320: a30f 953e 219e 993e 18d0 82bb 487a cbbe
00000330: 31d0 353e 0bb5 63be 4e2a 8ebe 5932 4dbe
00000340: 1bcc 05bf b208 63bd c791 d1be e236 b8bb
00000350: 84a4 213d ec80 2f3e a6cf edbb 6f1b 853e
00000360: 4868 28bf 9702 82be 1f58 d1be 8802 30be
00000370: 10fc 6cbe efee 383e cf67 e43d 7dbd a3be
00000380: cf3e bebe eaa4 9cbe 77b2 93be 1525 303d
00000390: e21e 7cbd 871a 203e 95f6 d33d 0fe8 c3be
000003a0: f53a e3be 6254 38bd 0add f1be 6667 9c3d
000003b0: b0ce ca3e 24ba 52bd 940c c6be 948d 2f3e
000003c0: a00c 863d 2998 d53d 6083 5b3d 5d7e 36be
000003d0: 4b9f e13e 14ea bd3e 93bb 87bd b5f8 b4bd
000003e0: 978b 50bb d781 633e 9a0b 00bd 9b51 253d
000003f0: 0a5f 4dbe 256f 3b3e 8680 25be 7891 d5bd

layers.9.bias f4 [64]
0.03740858 1.579028 -0.864568 0.9351955 -0.60670155 0.5349049 1.3268862 0.06208086
0.21420957 -0.42308924 -1.4871533 -0.26574185 -0.2612036 1.2927824 -0.29146293 -1.3015285
0.052014973 -0.08494677 -0.6099152 0.7944263 0.27808374 1.1132147 0.12097679 -0.55523676
0.7021189 0.2047792 -1.2361856 0.90037465 1.2110934 2.0649905 0.1314832 -0.71250504
-0.8334697 0.71567786 -0.56308556 1.122153 1.8787687 -1.2873598 -0.9919076 -0.10637561
-1.1438853 -0.47866663 -0.2796727 -0.6131132 1.077677 -0.62720776 -0.97018814 1.3468934
0.82187957 0.7093708 0.6315318 -0.91929877 -0.650008 -0.6337666 0.65245736 -0.8186133
0.3780158 -0.08048099 -0.22358593 -0.0940979 -0.41122946 -0.8766607 0.41732806 0.3548256
00000000: bd39 193d 971d ca3f 5454 5dbf f968 6f3f
00000010: cb50 1bbf 87ef 083f 68d7 a93f 8048 7e3d
00000020: c159 5b3e 279f d8be 0a5b bebf 510f 88be
00000030: 7abc 85be e579 a53f a13a 95be 7c98 a6bf
00000040: a70d 553d 92f8 adbd 6723 1cbf 865f 4b3f
00000050: fe60 8e3e d27d 8e3f aec2 f73d ff23 0ebf
00000060: 10be 333f a3b1 513e 543b 9ebf f47e 663f
00000070: 1c05 9b3f ce28 0440 88a3 063e bb66 36bf
00000080: 455e 55bf aa36 373f 6026 10bf b6a2 8f3f
00000090: 7e7b f03f 35c8 a4bf a8ed 7dbf 75db d9bd
000000a0: d56a 92bf cb13 f5be 4331 8fbe fdf4 1cbf
000000b0: 52f1 893f b090 20bf 405e 78bf 0167 ac3f
000000c0: b366 523f 5399 353f 11ac 213f 2a57 6bbf
000000d0: ed66 26bf 873e 22bf 7207 273f a490 51bf
000000e0: 498b c13e 38d3 a4bd b6f3 64be 66b6 c0bd
000000f0: ab8c d2be d66c 60bf 06ac d53e b3ab b53e

layers.12.weight f4 [128, 64, 3, 3]
0.36951843 0.054101102 0.014732292 -0.40106648 0.09049496 -0.012695111 0.3332726 -0.20561667
-0.60354483 0.074628875 -0.22512573 -0.25248298 -0.14469339 -0.1705977 -0.6018197 -0.032392554
-0.6418878 -0.23940071 -0.51502186 -0.12240509 -0.2852963 0.06949171 -0.17526542 0.33233872
-0.035809997 -0.4611314 0.13737646 -0.00919901 -0.0060497234 -0.09233078 -0.15081042 0.08133708
-0.088549934 0.20339583 0.070229426 0.011247586 -0.17187917 -0.08677074 -0.3176285 0.07318134
0.1377481 0.16773728 -0.027522208 0.4505027 -0.16568339 0.07718898 -0.2276224 0.040031817
0.17169544 -0.24097489 0.2709359 -0.42089593 -0.796871 0.2014693 0.6984716 0.37063646
0.19641267 -0.3608087 0.23367573 0.09600932 0.30769423 -0.017047666 -0.10448739 0.15592301
-0.20890659 -0.28937995 0.30120793 -0.43315345 0.23416427 0.1350071 -0.36974514 0.094028234
0.33815902 -0.3035337 -0.08115318 -0.08889624 -0.16948363 -0.27393505 -0.52400815 -0.06505503
-0.4715657 -0.49162248 -0.10108567 0.012030777 0.047153536 -0.29630932 -0.16049959 -0.120438196
-0.2105781 -0.12194758 -0.3335947 0.0032597627 -0.005049253 0.06860238 -0.22459212 -0.07401401
-0.011170454 -0.20324086 0.22427726 0.07310468 -0.040851124 0.3998749 0.18040083 -0.6096331
-0.61538744 -0.31684887 0.18297088 -0.16855556 0.35070735 -0.28691489 0.014701397 0.08613991
-0.35911772 0.09903735 -0.15928929 0.010434388 -0.0024537402 -0.11986385 -0.2620421 0.080736004
-0.3568131 -0.119247764 0.48517442 -0.22018348 0.29203635 -0.39059436 0.100105725 -0.05793148
-0.16728686 -0.17225799 -0.039586473 0.17931974 0.66739243 -0.6231256 0.14222695 0.09612053
0.09857411 -0.25089124 -0.2727783 0.010155031 -0.4016746 -0.45051652 -0.13883375 0.036418226
0.07637282 0.311774 -0.36866033 0.27062243 0.098490365 -0.0053767688 -0.101999916 0.02753628
-0.1636162 -0.64010376 0.35243016 0.06701041 -0.35261145 0.27308327 0.3338305 -0.48028395
-0.23064217 0.036961854 -0.056805473 0.039069973 -0.18143608 0.36298394 -0.016205568 -0.18716723
-0.2372875 -0.697964 -0.2171601 -0.25139078 0.09784553 0.03950956 -0.02314576 -0.1726429
-0.21724325 0.44684133 0.44900665 0.06777368 0.24506891 -0.14516038 0.23496763 0.2187277
0.19210719 0.24481656 -0.7627609 -0.042931106 -0.24620323 0.04042474 0.28364038 0.5310479
-0.028062675 -0.23683262 0.25780126 0.011381965 0.22616929 -0.47703403 -0.1641313 -0.21608047
0.10643927 -0.2510012 -0.19568838 0.53797096 -0.25810713 -0.0029064368 -0.007849807 -0.15942425
-0.22589883 -0.61556995 -0.07819775 0.10535413 0.1554796 0.38770878 -0.14774324 0.2939416
-0.006901001 -0.23575744 -0.08601395 -0.27079806 -0.11924108 -0.19735098 0.1034882 -0.4721132
0.2151132 -0.23787837 0.1920465 0.39467373 0.18013765 0.08416373 -0.6458007 -0.2069042
0.64857066 -0.19928877 0.13497102 -0.02349821 -0.07466982 -0.48434716 -0.5621977 -0.98798895
-0.081182085 -0.41419876 0.061425325 -0.20362182 0.61456215 -0.035590924 0.43252465 -0.2669395
0.22035831 -0.14065276 0.015240192 -0.312608 -0.18059285 0.20950541 -0.102907225 -0.7862647
00000000: 8531 bd3e 1e99 5d3d b65f 713c 9658 cdbe
00000010: 6c55 b93d 28ff 4fbc b5a2 aa3e 2d8d 52be
00000020: ea81 1abf 06d7 983d 5c87 66be 7345 81be
00000030: 812a 14be 2ab1 2ebe db10 1abf 0eae 04bd
00000040: c252 24bf 7625 75be 79d8 03bf 85af fabd
00000050: 5b12 92be ab51 8e3d c778 33be 4d28 aa3e
00000060: 81ad 12bd 6a19 ecbe 6aac 0c3e 72b7 16bc
00000070: c23c c6bb ec17 bdbd 0c6e 1abe 0e94 a63d
00000080: ab59 b5bd ff46 503e 72d4 8f3d cc47 383c
00000090: 1801 30be dcb4 b1bd 34a0 a2be 19e0 953d
000000a0: d70d 0d3e 52c3 2b3e 4176 e1bc 4aa8 e63e
000000b0: e8a8 29be 4215 9e3d d915 69be 67f8 233d
000000c0: eed0 2f3e 1fc2 76be 1cb8 8a3e ac7f d7be
000000d0: bdff 4bbf f84d 4e3e 09cf 323f 10c4 bd3e
000000e0: 6720 493e ebbb b8be b148 6f3e 89a0 c43d
000000f0: 198a 9d3e 8ca7 8bbc 7cfd d5bd 48aa 1f3e
00000100: 9ceb 55be 9c29 94be ed37 9a3e 4ac6 ddbe
00000110: c2c8 6f3e 4d3f 0a3e 3c4f bdbe e091 c03d
00000120: 2e23 ad3e c568 9bbe a333 a6bd 3b0f b6bd
00000130: 1e8d 2dbe 3741 8cbe 6625 06bf 923b 85bd
00000140: 0f71 f1be f1b5 fbbe 0106 cfbd bc1c 453c
00000150: 1124 413d dbb5 97be 015a 24be 4da8 f6bd
00000160: c9a1 57be a7bf f9bd edcc aabe bea1 553b
00000170: 3474 a5bb 687f 8c3d 7afb 65be a894 97bd
00000180: 4804 37bc 5f1e 50be f0a8 653e e8b7 953d
00000190: 8253 27bd 67bc cc3e ffba 383e ea10 1cbf
000001a0: 088a 1dbf 043a a2be b85c 3b3e d499 2cbe
000001b0: ea8f b33e 82e6 92be 21de 703c 1f6a b03d
000001c0: 47de b7be 18d4 ca3d bb1c 23be fff4 2a3c
000001d0: eece 20bb 2e7b f5bd 622a 86be eb58 a53d
000001e0: 35b0 b6be 2c38 f4bd c868 f83e c777 61be
000001f0: ca85 953e fcfb c7be 3b04 cd3d 8f49 6dbd
00000200: 3f4d 2bbe 6664 30be 6d25 22bd 989f 373e
00000210: 3bda 2a3f 2985 1fbf f1a3 113e d7da c43d
00000220: 39e1 c93d d174 80be 99a9 8bbe 4a61 263c
00000230: 4ba8 cdbe 1aaa e6be 6f2a 0ebe 472b 153d
00000240: 5a69 9c3d d7a0 9f3e 0cc1 bcbe 068f 8a3e
00000250: 51b5 c93d 9b2f b0bb 55e5 d0bd c493 e13c
00000260: 018b 27be d7dd 23bf ba71 b43e c13c 893d
00000270: 7d89 b4be 92d1 8b3e d5eb aa3e c7e7 f5be
00000280: 762d 6cbe 5065 173d dbac 68bd d607 203d
00000290: 61ca 39be 08d9 b93e 8ac1 84bc c4a8 3fbe
000002a0: 7ffb 72be c5ad 32bf 385f 5ebe 4bb6 80be
000002b0: 3d63 c83d c7d4 213d 2d9c bdbc 4dc9 30be
000002c0: 0475 5ebe 63c8 e43e 33e4 e53e edcc 8a3d
000002d0: 58f3 7a3e eca4 14be 5b9b 703e 27fa 5f3e
000002e0: bfb7 443e 31b1 7a3e 4c44 43bf 87d8 2fbd
000002f0: b31c 7cbe 6a94 253d 5039 913e c1f2 073f
00000300: b2e3 e5bc 4084 72be 87fe 833e 6c7b 3a3c
00000310: ec98 673e ce3d f4be 0912 28be 3344 5dbe
00000320: d5fc d93d 3b83 80be 8962 48be 77b8 093f
00000330: 9e26 84be eb79 3ebb 7a9c 00bc 1c40 23be
00000340: 0652 67be fe95 1dbf 2426 a0bd e8c3 d73d
00000350: 0b36 1f3e c481 c63e 014a 17be 837f 963e
00000360: cb21 e2bb 666a 71be 1528 b0bd 0ba6 8abe
00000370: ab34 f4bd 6016 4abe 9ff1 d33d d2b8 f1be
00000380: a246 5c3e 6396 73be d6a7 443e ad12 ca3e
00000390: 0176 383e 095e ac3d 3253 25bf b2de 53be
000003a0: ba08 263f 5b12 4cbe d835 0a3e 517f c0bc
000003b0: 7eec 98bd 5afc f7be 30ec 0fbf d8ec 7cbf
000003c0: cb42 a6bd dc11 d4be 1f99 7b3d 3d82 50be
000003d0: f253 1d3f cac7 11bd df73 dd3e 4bac 88be
000003e0: 9ca5 613e 4707 10be 00b2 793c 280e a0be
000003f0: 55ed 38be 9688 563e 06c1 d2bd a548 49bf

layers.12.bias f4 [128]
-0.0029009779 -0.7935913 -0.10184073 0.15502943 -0.9641092 -0.54810625 0.48177367 -0.97123456
-0.85933167 -0.120337866 -0.063603975 -0.6373407 0.37141404 -0.20720224 -0.44340187 1.045227
-0.6234964 1.1594571 -0.29322556 0.17158657 -0.75762403 0.33424222 -1.334808 -0.22251284
-0.86605644 -0.057206616 0.38988668 0.33477345 -0.23336257 0.32531348 0.08797366 1.4473773
1.5007774 1.2875495 -0.4722419 0.6745368 -0.6421631 -0.74532974 1.0211989 -0.09080236
1.5325254 -0.16907765 1.4597782 0.46960306 -0.2184245 -0.436969 1.045172 -0.48823637
-0.08078059 0.5980372 0.42022166 -0.6594538 -0.09409474 -0.6800908 0.67046964 -1.290284
-0.3353684 0.32652682 0.2846425 -0.37952667 -0.7706141 -0.23628455 -0.32831413 -0.018807314
-1.021515 1.04605 -0.50847477 0.6223324 0.5806924 -0.46053112 0.59373385 -1.2733904
-0.26564646 -0.011033023 -0.7027982 -0.02242188 -0.07660435 0.4141888 -0.105581164 -0.2909376
-0.7498397 0.96479 0.8065548 0.74438196 -0.08629765 -0.66288733 -0.5078299 0.41091996
-0.016723871 -0.0021511668 -0.80254203 0.7873214 -0.2670996 -0.5646339 -0.96163255 0.8030468
-0.5735722 -0.6600859 -1.3276029 0.80794007 -0.9741158 -0.6290966 -0.17286833 -0.69690853
1.1272818 0.5282672 1.545149 -0.35269096 -0.55695516 -0.9546717 1.510526 -0.07310976
-1.1385641 -0.11218384 1.6284535 -1.0627002 1.1069245 0.28419584 -0.5786064 0.027108725
-0.104850724 -0.6735268 0.040538587 -0.27032438 -0.05442208 -0.15783387 0.8289075 -0.19587597
00000000: 551e 3ebb cd28 4bbf df91 d0bd 09c0 1e3e
00000010: dccf 76bf b150 0cbf 0aab f63e d4a2 78bf
00000020: 29fd 5bbf b373 f6bd cd42 82bd c328 23bf
00000030: fb29 be3e d32c 54be 9205 e3be 00ca 853f
00000040: 769d 1fbf 1769 943f a921 96be 64b4 2f3e
00000050: a6f3 41bf cc21 ab3e fdda aabf 68da 63be
00000060: e0b5 5dbf 7c51 6abd 3a9f c73e 6d67 ab3e
00000070: 99f6 6ebe 7d8f a63e 892b b43d a943 b93f
00000080: 7919 c03f 6cce a43f b1c9 f1be 72ae 2c3f
00000090: cd64 24bf eecd 3ebf a5b6 823f 96f6 b9bd
000000a0: cb29 c43f b122 2dbe 03da ba3f d06f f03e
000000b0: acaa 5fbe 67ba dfbe 32c8 853f 1efa f9be
000000c0: 4b70 a5bd f718 193f 4b27 d73e f7d1 28bf
000000d0: beb4 c0bd 6e1a 2ebf e6a3 2b3f 0728 a5bf
000000e0: 68b5 abbe 862e a73e a9bc 913e 5251 c2be
000000f0: f746 45bf 94f4 71be ca18 a8be cc11 9abc
00000100: 01c1 82bf f7e4 853f 672b 02bf 2d51 1f3f
00000110: 42a8 143f bcca ebbe f1fe 173f 75fe a2bf
00000120: d002 88be dac3 34bc 95ea 33bf 17ae b7bc
00000130: bee2 9cbd 8e10 d43e f03a d8bd c6f5 94be
00000140: 7ff5 3fbf 7afc 763f 607a 4e3f d18f 3e3f
00000150: d3bc b0bd fcb2 29bf 2401 02bf 1a64 d23e
00000160: 8000 89bc 97fa 0cbb 6573 4dbf e58d 493f
00000170: 47c1 88be d98b 10bf 8d2d 76bf 7a94 4d3f
00000180: a1d5 12bf 64fb 28bf e4ee a9bf 29d5 4e3f
00000190: a75f 79bf 7a0c 21bf 6504 31be 9968 32bf
000001a0: c54a 903f 853c 073f 71c7 c53f e993 b4be
000001b0: 9d94 0ebf 5d65 74bf ea58 c13f 92ba 95bd
000001c0: 78bc 91bf a4c0 e5bd 2a71 d03f 8f06 88bf
000001d0: b4af 8d3f 1e82 913e 8d1f 14bf 1e13 de3c
000001e0: fabb d6bd 416c 2cbf ca0b 263d f567 8abe
000001f0: b0e9 5ebd 349f 21be 4833 543f b693 48be

layers.15.weight f4 [120, 128]
-0.09366872 -0.41974252 0.0017218086 -0.020014787 -0.54201627 -0.28783986 -0.03548479 0.047584087
0.083652765 -0.4855243 -0.09022592 -0.25165412 0.011900131 -0.17948015 0.1475837 -0.12661807
-0.3464048 0.095544726 -0.14718178 -0.19371149 -0.19705096 -0.18625024 -0.25696453 -0.034296002
0.052068084 0.19432169 0.3438823 0.07112529 -0.16681153 0.05461042 -0.09978419 -0.41145757
-0.21933113 0.14630021 0.17002064 -0.3457042 0.14618161 -0.047350407 -0.50746584 0.027199203
0.026495991 -0.0839799 0.014628158 -0.21997176 0.3961018 -0.17068003 -0.3197778 -0.21114697
0.0651399 -0.008347682 -0.19274598 -0.11932517 0.090004966 0.32358268 0.2046272 -0.37646842
0.028287815 -0.37539938 0.02708378 0.12408334 0.0994975 -0.30987373 0.111807756 -0.033084404
-0.13058397 -0.12817608 -0.11467382 0.026164195 0.047382645 0.28782856 0.083961815 -0.010007337
0.3639743 0.05514333 -0.03486856 -0.035097256 -0.045470722 -0.4208234 -0.23068896 -0.24656244
0.03236486 0.013672279 -0.15103632 0.24611954 0.038262185 0.04147371 -0.26567236 0.09719889
-0.5860177 0.16062424 -0.12753993 -0.14068191 0.08739802 0.3756539 -0.15070204 0.07422198
0.34121627 -0.26914042 0.07062285 0.06815823 0.112612516 0.035819743 -0.31237933 -0.15294926
-0.3265996 -0.112886384 -0.12589449 -0.17362775 0.052245554 0.08584194 -0.0032421958 0.07786727
-0.12729706 0.048932366 0.0031922266 -0.27012345 0.13017766 -0.17333394 0.013957061 0.33008882
-0.3317635 -0.048952963 -0.097942404 0.05068373 0.018078603 -0.004924184 -0.27636454 -0.3126183
0.03364195 0.38793364 -0.029695047 0.08721533 -0.0035531796 0.3161748 0.2350173 -0.36768803
-0.085823745 0.07063851 -0.02929191 -0.12876558 -0.047957502 -0.22908899 -0.12581874 0.23580016
0.12161461 0.1603867 -0.28990272 0.0026249806 -0.17264959 0.13007659 0.022155415 0.19178697
0.10682583 0.23015313 -0.24640113 0.15900113 -0.046066687 0.15656796 0.18242408 0.03832477
-0.21074162 -0.19349322 0.257238 -0.1521796 -0.04010597 -0.16472383 0.16078141 -0.2961851
-0.030937633 -0.12976284 -0.030783372 0.036791574 -0.26973116 -0.30963203 -0.11788075 0.08212598
0.09252146 0.097170904 -0.24654366 0.3373649 -0.0898844 0.09696463 0.008476859 0.2366337
0.1769624 0.5040448 0.22592765 -0.031477075 0.15968889 -0.19223894 0.17698246 0.0067416695
0.06116743 -0.041992966 0.011313083 -0.08117917 -0.37971342 -0.15226747 0.3361056 -0.26357248
0.07347808 0.09549522 0.058805123 0.0873657 -0.08271992 0.16297123 -0.30773002 0.1506001
-0.095057644 0.38682988 0.091741696 -0.38466814 0.028851533 -0.15622446 0.03518892 0.018916162
0.09158632 -0.4645991 -0.35731855 -0.14102592 -0.24270734 0.40010902 -0.19266896 -0.27878445
0.28162426 -0.20124221 0.12767011 -0.1490433 -0.27530318 0.2912388 -0.32305083 0.16922154
-0.16568306 0.31983694 -0.2617916 0.29476163 -0.36080292 0.059300408 -0.19924651 -0.06719135
-0.1349009 0.03941163 0.14019015 0.23695713 -0.19157252 -0.32390088 0.15125157 -0.23114865
0.19394927 0.030788174 -0.3523206 0.044245083 0.010982642 0.016087672 -0.28225031 0.38008606
00000000: 63d5 bfbd 7ee8 d6be 4fae e13a 0df6 a3bc
00000010: 94c1 0abf bf5f 93be 8058 11bd 88e7 423d
00000020: 2452 ab3d a496 f8be 5ec8 b8bd cfd8 80be
00000030: c4f8 423c a5c9 37be 2e20 173e 2ba8 01be
00000040: f85b b1be f4ac c33d d2b6 16be 4e5c 46be
00000050: bac7 49be 62b8 3ebe db90 83be f779 0cbd
00000060: 5845 553d 44fc 463e 5711 b03e 23aa 913d
00000070: a4d0 2abe 2daf 5f3d a75b ccbd 91aa d2be
00000080: 5798 60be b9cf 153e e419 2e3e 2400 b1be
00000090: a2b0 153e 80f2 41bd 48e9 01bf ddd0 de3c
000000a0: 1f0e d93c a7fd abbd f1aa 6f3c 4740 61be
000000b0: dbcd ca3e bfc6 2ebe eab9 a3be e936 58be
000000c0: 1168 853d b7c4 08bc 345f 45be c160 f4bd
000000d0: 8654 b83d a1ac a53e cb89 513e 78c0 c0be
000000e0: d9bb e73c 5934 c0be cede dd3c 681f fe3d
000000f0: 58c5 cb3d c5a7 9ebe 77fb e43d 8383 07bd
00000100: ceb7 05be 9740 03be 1cda eabd 4b56 d63c
00000110: 4e14 423d 445e 933e 2cf4 ab3d d0f5 23bc
00000120: d75a ba3e f9dd 613d 56d2 0ebd 24c2 0fbd
00000130: 823f 3abd 2a76 d7be ba39 6cbe dd7a 7cbe
00000140: 0491 043d b201 603c 44a9 1abe c306 7c3e
00000150: cfb8 1c3d 56e0 293d 3506 88be 3610 c73d
00000160: 4205 16bf ae7a 243e d499 02be eb0e 10be
00000170: bcfd b23d b555 c03e a351 1abe b201 983d
00000180: e6b3 ae3e c6cc 89be b6a2 903d 8b96 8b3d
00000190: 64a1 e63d b9b7 123d 2ff0 9fbe bb9e 1cbe
000001a0: 1038 a7be fa30 e7bd 7cea 00be 79cb 31be
000001b0: 6fff 553d e6cd af3d 057b 54bb e078 9f3d
000001c0: 295a 02be 4e6d 483d ad34 513b 9f4d 8abe
000001d0: 4b4d 053e 747e 31be 28ac 643c 6701 a93e
000001e0: e8dc a9be e782 48bd 0796 c8bd be99 4f3d
000001f0: 9419 943c 0d5b a1bb a77f 8dbe 810f a0be
00000200: 24cc 093d 3d9f c63e 0743 f3bc f39d b23d
00000210: 76dc 68bb aae1 a13e 60a8 703e 9b41 bcbe
00000220: 5cc4 afbd ecaa 903d 96f5 efbc 20db 03be
00000230: 166f 44bd 4e96 6abe a1d6 00be 9975 713e
00000240: 1511 f93d 693c 243e 216e 94be de07 2c3b
00000250: 0ecb 30be cc32 053e 467f b53c ce63 443e
00000260: 80c7 da3d 43ad 6b3e 9450 7cbe 31d1 223e
00000270: 6cb0 3cbd 5a53 203e 61cd 3a3e 6ffa 1c3d
00000280: a7cc 57be 1623 46be b3b4 833e f8d4 1bbe
00000290: 2846 24bd 5dad 28be e2a3 243e 93a5 97be
000002a0: eb70 fdbc 8de0 04be 692d fcbc c3b2 163d
000002b0: 341a 8abe 1788 9ebe 766b f1bd aa31 a83d
000002c0: e47b bd3d 8a01 c73d f175 7cbe 18bb ac3e
000002d0: 5015 b8bd 6495 c63d 86e2 0a3c 1b50 723e
000002e0: a235 353e 1409 013f 9459 673e 1bee 00bd
000002f0: 7c85 233e 49da 44be e43a 353e 39e9 dc3b
00000300: b38a 7a3d d100 2cbd 825a 393c 4441 a6bd
00000310: cc69 c2be 01ec 1bbe 0916 ac3e f9f2 86be
00000320: ad7b 963d ff92 c33d a4dd 703d caec b23d
00000330: 1069 a9bd eee1 263e ca8e 9dbe ea36 1a3e
00000340: 95ad c2bd 910e c63e 12e3 bb3d 39f3 c4be
00000350: 0d5a ec3c 4ef9 1fbe 4222 103d 11f6 9a3c
00000360: 9c91 bb3d efdf edbe 75f2 b6be 1969 10be
00000370: 4688 78be 17db cc3e 034b 45be d6bc 8ebe
00000380: 0e31 903e 7012 4ebe f4bb 023e cf9e 18be
00000390: 8af4 8cbe 411d 953e eb66 a5be 6948 2d3e
000003a0: d2a8 29be abc1 a33e 8c09 86be ffea 963e
000003b0: 29bb b8be fce4 723d 4707 4cbe 9e9b 89bd
000003c0: 7623 0abe 176e 213d 028e 0f3e e4a4 723e
000003d0: 962b 44be 56d6 a5be b1e1 1a3e 3bb2 6cbe
000003e0: a39a 463e 7b37 fc3c 5e63 b4be 553a 353d
000003f0: 8af0 333c 4bca 833c 1d83 90be a49a c23e

layers.15.bias f4 [120]
0.34753415 0.7977336 -0.17071497 0.4475607 -0.2919255 -0.65825045 1.1967208 0.38644332
-0.17653309 -0.34128883 -0.4672862 0.9060974 -0.08653051 -0.43870807 0.841792 -0.70273465
-0.43440455 -0.46927437 0.019615082 -0.63978535 -0.5479822 -1.1523205 -0.6914469 -0.3937982
-0.45502025 -0.36221308 -0.3493958 -0.22344589 0.11491619 -0.50852376 0.13750318 -0.51371384
1.1868826 0.084013425 0.75467557 0.63379335 -0.7025394 -0.3254653 -0.57723063 -0.60676676
-0.7098899 -0.65766674 -0.25591117 0.26821807 -0.40049314 -0.2958412 -0.5066328 -0.34880552
-0.07838771 -0.38960364 2.5280485 0.104007125 2.4061513 -0.47863054 -0.40469578 0.86222255
-0.5374989 2.0063202 -0.42812455 -0.18913755 0.49244002 -0.6594726 -0.5458568 -0.36686605
-0.5413734 0.8299617 -0.32296103 0.60821337 -1.0893621 -0.5499576 -0.6454788 0.10531002
-0.174061 -0.46280083 -0.447012 -0.37698913 -0.4301022 -0.0017136849 -0.32454193 0.6208249
2.1625366 -0.40238366 -0.66617984 -0.4160592 -0.41524988 -0.67254114 -0.16087282 -0.054115947
0.871043 -0.8847794 -0.693 -0.5948868 1.4239995 -0.12800716 -0.957627 0.3057252
1.6172055 -0.44352272 0.18211144 -0.38190785 -0.48616892 -0.3929382 -0.31455925 -0.4048575
-0.553594 -0.243764 -0.8402587 -0.4575035 -0.51743716 -0.29819778 0.91353863 0.045862053
0.4470317 -0.02912628 0.29785115 -0.3636231 -0.12753044 -0.6178348 1.3234527 -0.2591643
00000000: ffef b13e 4538 4c3f e8cf 2ebe ad26 e53e
00000010: 4277 95be 1a83 28bf 262e 993f e6db c53e
00000020: 17c5 34be 69bd aebe 2340 efbe 00f6 673f
00000030: e836 b1bd 589e e0be ae7f 573f 6be6 33bf
00000040: 466a debe bb44 f0be cfaf a03c f9c8 23bf
00000050: 9048 0cbf 3d7f 93bf aa02 31bf eb9f c9be
00000060: 6af8 e8be fe73 b9be 02e4 b2be 00cf 64be
00000070: 2e59 eb3d 9d2e 02bf a2cd 0c3e c082 03bf
00000080: c5eb 973f 3b0f ac3d 6b32 413f 4840 223f
00000090: 9fd9 33bf 63a3 a6be 63c5 13bf 1155 1bbf
000000a0: 58bb 35bf d95c 28bf ca06 83be e153 893e
000000b0: 700d cdbe 7f78 97be b0b2 01bf a396 b2be
000000c0: bc89 a0bd 217a c7be 8ccb 2140 b001 d53d
000000d0: 62fe 1940 100f f5be 4934 cfbe 9eba 5c3f
000000e0: 8799 09bf 8d67 0040 2433 dbbe 46ad 41be
000000f0: 1921 fc3e 32d3 28bf 45bd 0bbf ded5 bbbe
00000100: 7297 0abf 5f78 543f 265b a5be dfb3 1b3f
00000110: 3870 8bbf 05ca 0cbf 193e 25bf c8ac d73d
00000120: 0c3d 32be 3bf4 ecbe c2de e4be b804 c1be
00000130: 5b36 dcbe b99d e0ba 5c2a a6be 61ee 1e3f
00000140: 0067 0a40 3b05 cebe c38a 2abf b605 d5be
00000150: a29b d4be a82b 2cbf d8bb 24be afa8 5dbd
00000160: adfc 5e3f e780 62bf 7368 31bf 804a 18bf
00000170: 9e45 b63f 4f14 03be 0b27 75bf 0388 9c3e
00000180: 9700 cf3f 6915 e3be 6c7b 3a3e 6d89 c3be
00000190: 22eb f8be 322f c9be e90d a1be 7b49 cfbe
000001a0: 56b8 0dbf 459d 79be 321b 57bf e63d eabe
000001b0: c376 04bf 61ad 98be abdd 693f d9d9 3b3d
000001c0: 57e1 e43e 3d9a eebc f27f 983e cf2c babe
000001d0: 5797 02be 6c2a 1ebf e666 a93f 2fb1 84be

layers.17.weight f4 [84, 120]
-0.1277148 -0.028008247 -0.013921423 0.054458376 -0.18563603 0.15841316 -0.019938676 -0.08694217
-0.04331375 0.16749004 0.22868633 -0.31839174 -0.040638246 0.03929727 -0.04429181 -0.40489924
0.22938031 -0.12435855 -0.037578143 -0.14481199 0.113580994 -0.31612283 0.1903854 0.14077058
0.033949576 -0.08175903 0.13110052 0.050566673 0.03498377 0.0055700378 -0.14078815 -0.035812315
-0.05080439 0.16808724 -0.16143698 -0.00032411696 -0.05725246 0.0404718 0.14778867 0.13973965
0.19708729 -0.28002957 0.32028008 0.07432564 0.37213948 0.13964613 0.034438122 0.15394543
-0.048347637 0.073846586 -0.3091539 0.095301986 -0.17289841 0.2468502 0.34204277 -0.11819647
0.05253462 -0.30175722 0.16304187 -0.045935083 0.059248865 -0.16035645 0.19458063 0.25855446
0.09653981 -0.03356174 0.28835663 0.10180058 -0.024732478 0.25728908 0.07942673 0.06067606
-0.13188173 0.106119886 0.20970218 -0.089558914 -0.037435986 0.10132843 -0.0651642 0.18455607
-0.2588624 0.030970147 -0.018387644 -0.22789477 0.2226518 -0.040350147 -0.07795893 -0.23122269
-0.33101943 -0.26326352 0.17624238 0.019241447 -0.10176876 -0.09653578 -0.38148934 0.15444063
-0.20133722 -0.10837718 -0.11187636 0.13610627 0.07290224 -0.051140573 -0.024401432 -0.023274833
0.022411942 0.12860344 -0.1399557 0.10708692 -0.050803818 0.12091968 -0.13025239 0.12905686
0.17003605 -0.039139684 -0.023165599 0.14627793 0.06476031 0.34708908 0.15745795 0.21415322
0.10781819 -0.23186858 0.011337279 -0.07762536 -0.104087904 -0.06638939 -0.119348995 -0.15592471
0.026932323 0.004660585 -0.053778984 0.0041772663 0.06421752 0.051541235 -0.09527914 -0.16111876
-0.022562075 -0.17875293 -0.07792103 -0.06228922 -0.0014447421 -0.19697025 0.15871046 0.009791017
0.015037515 0.04585438 -0.0440511 0.025976716 -0.15750358 0.07909111 -0.043772947 -0.13734466
-0.049905706 -0.062648445 -0.17373541 -0.07626787 -0.052820977 -0.06106885 0.07974091 0.025676737
0.03879918 -0.021225605 0.05362115 -0.041548375 0.0863603 -0.06869571 -0.09476268 -0.06348911
-0.04302068 0.17529888 -0.044512153 -0.08441406 -0.20960245 0.02517371 0.05591832 -0.039615024
0.07425441 -0.09575086 0.14018722 0.007960061 0.00057396427 -0.07456263 -0.027236637 0.041858062
0.010617103 -0.083853215 0.05611898 -0.06186339 -0.17035154 -0.00034061584 -0.12924829 -0.02432129
0.0040050056 -0.05268901 0.049215272 -0.065909736 -0.124718264 -0.06471246 -0.037265033 0.07809533
-0.132196 0.02122406 -0.14064145 0.01733315 0.029503278 0.039036434 -0.033604585 -0.1260544
-0.12018413 -0.014244938 -0.04946813 -0.082136296 -0.10457872 -0.15443052 -0.18213996 -0.11565008
-0.1821889 0.20412295 -0.010076047 0.050174784 0.089666285 0.03385004 -0.056233272 0.11207626
0.02569747 0.12491585 -0.042392194 0.0771536 0.0029591313 0.106381364 -0.08146995 -0.035038535
0.01300757 -0.042516146 0.089755386 0.01296984 0.07425754 0.009966996 0.055668037 0.037828397
-0.03394313 -0.117958434 -0.109118015 -0.040309984 -0.044707533 -0.009602084 0.114346124 -0.0786987
-0.0042718826 0.062598564 0.09796734 0.001744664 -0.021533461 -0.1486154 0.017834645 0.016446976
00000000: abc7 02be 8d71 e5bc ae16 64bc bf0f 5f3d
00000010: 5f17 3ebe 0f37 223e 6f56 a3bc bd0e b2bd
00000020: c269 31bd 8282 2b3e c02c 6a3e 3e04 a3be
00000030: 4a74 26bd 2df6 203d 546b 35bd f44e cfbe
00000040: ace2 6a3e b2af febd 8aeb 19bd 9849 14be
00000050: 279d e83d dada a1be 64f4 423e 2a26 103e
00000060: b60e 0b3d 4771 a7bd 373f 063e 001f 4f3d
00000070: 244b 0f3d dd84 b63b c52a 10be efaf 12bd
00000080: 4418 50bd 101f 2c3e bc4f 25be 3eee a9b9
00000090: 8e81 6abd c2c5 253d ea55 173e e917 0f3e
000000a0: 40d1 493e 0960 8fbe c0fb a33e 0b38 983d
000000b0: 1189 be3e 65ff 0e3e fd0e 0d3d dfa3 1d3e
000000c0: 2c08 46bd e13c 973d 6c49 9ebe b02d c33d
000000d0: 480c 31be 4dc6 7c3e 3b20 af3e fe10 f2bd
000000e0: 8b2e 573d ec7f 9abe 73f4 263e 6d26 3cbd
000000f0: f0ae 723d 7b34 24be 2540 473e 4061 843e
00000100: aab6 c53d 0978 09bd 7ba3 933e d37c d03d
00000110: c49b cabc 65bb 833e 7baa a23d 7687 783d
00000120: 010c 07be 6255 d93d 2bbc 563e aa6a b7bd
00000130: 7a56 19bd 4885 cf3d cf74 85bd 44fc 3c3e
00000140: 9d89 84be 1bb5 fd3c afa1 96bc 3f5d 69be
00000150: d5fe 633e 3246 25bd eea8 9fbd a4c5 6cbe
00000160: 617b a9be 7aca 86be e278 343e 3da0 9d3c
00000170: 246c d0bd 8db4 c5bd 9252 c3be af25 1e3e
00000180: 582b 4ebe dbf4 ddbd 6f1f e5bd 715f 0b3e
00000190: c54d 953d c778 51bd 83e5 c7bc ddaa bebc
000001a0: 4099 b73c 9fb0 033e 8c50 0fbe 6350 db3d
000001b0: aa17 50bd bda4 f73d e260 05be 7b27 043e
000001c0: ee1d 2e3e ef50 20bd c8c5 bdbc e2c9 153e
000001d0: 0ea1 843d a9b5 b13e a83c 213e fb4a 5b3e
000001e0: c8cf dc3d f56e 6dbe ffbf 393c 0bfa 9ebd
000001f0: 0a2c d5bd 29f7 87bd 3f6d f4bd baaa 1fbe
00000200: 2da1 dc3c d2b7 983b 5a47 5cbd 73e1 883b
00000210: 7a84 833d e71c 533d b621 c3bd 51fc 24be
00000220: 1ad4 b8bc 020b 37be 1095 9fbd fb22 7fbd
00000230: 805d bdba 92b2 49be ff84 223e 806a 203c
00000240: e95f 763c cdd1 3b3d ed6e 34bd 1fcd d43c
00000250: 9e48 21be 85fa a13d 434b 33bd 14a4 0cbe
00000260: ed69 4cbd d44d 80bd b2e7 31be 5432 9cbd
00000270: cf5a 58bd 5523 7abd 344f a33d 0558 d23c
00000280: e4eb 1e3d 52e1 adbc daa1 5b3d a12e 2abd
00000290: abdd b03d 56b0 8cbd f012 c2bd 9406 82bd
000002a0: 7436 30bd 8d81 333e 6052 36bd 47e1 acbd
000002b0: 06a2 56be 1939 ce3c 9c0a 653d 5d43 22bd
000002c0: b212 983d 0719 c4bd 3d8d 0f3e ea6a 023c
000002d0: 1776 163a 4bb4 98bd 5e1f dfbc 5c73 2b3d
000002e0: 5cf3 2d3c 3cbb abbd 04dd 653d 7764 7dbd
000002f0: a270 2ebe af94 b2b9 aa59 04be 713d c7bc
00000300: 6c3c 833b 6ed0 57bd f495 493d affb 86bd
00000310: 4a6c ffbd f787 84bd 38a3 18bd 72f0 9f3d
00000320: 635e 07be 14de ad3c 5004 10be 40fe 8d3c
00000330: dcb0 f13c abe4 1f3d f6a4 09bd 6814 01be
00000340: 1923 f6bd 9a63 69bc 189f 4abd 1337 a8bd
00000350: 5e2d d6bd 0923 1ebe e682 3abe f3d9 ecbd
00000360: ba8f 3abe 9b05 513e 0116 25bc 1384 4d3d
00000370: f5a2 b73d 57a6 0a3d dc54 66bd 3d88 e53d
00000380: 8083 d23c e2d3 ff3d 70a3 2dbd b502 9e3d
00000390: fced 413b 79de d93d b8d9 a6bd 9184 0fbd
000003a0: b41d 553c 6925 2ebd acd1 b73d 747f 543c
000003b0: 5614 983d 9c4c 233c 2b04 643d f3f1 1a3d
000003c0: f407 0bbd 3194 f1bd 4479 dfbd 151c 25bd
000003d0: 3f1f 37bd 0f52 1dbc 4d2e ea3d c92c a1bd
000003e0: 26fb 8bbb ad33 803d 1aa3 c83d 36ad e43a
000003f0: f166 b0bc a32e 18be f619 923c cfbb 863c
