UCDavis_ECS189G/code/stage_2_code/result/MLP_model_2.pth (torch, 33439 bytes, 4 tensors)

layers.0.weight f4 [10, 784]
0	0xbad29240	-0.0016065314
1	0xbcbb5668	-0.02286835
2	0xbc968623	-0.018374508
3	0xbca5ce40	-0.02023995
4	0x3cf85e86	0.03031851
5	0x3bfa21b8	0.007633414
6	0x3b31a920	0.0027108863
7	0x3c6ca388	0.014443286
8	0x3c989658	0.018626377
9	0x3c041778	0.008062236
10	0xbcfed853	-0.03110901
11	0xbb388370	-0.0028154515
12	0x3faf25fc	1.3683467
13	0x3f881ac2	1.0633166
14	0x3f2d675d	0.67735845
15	0x3f278f4d	0.65453035
16	0xbc333898	-0.010938786
17	0x3c6cd7b0	0.014455721
18	0xbb95b9b8	-0.0045692585
19	0x3c898fac	0.01679214
20	0x3c93628a	0.017991323
21	0xbcf974cc	-0.0304512
22	0xbc4c038a	-0.012452016
23	0x3c92ea12	0.017933879
24	0x3cefa146	0.029251706
25	0xbc6cf652	-0.014463024
26	0xbc04511c	-0.008075979
27	0x3d0a1939	0.03371546
28	0x3ca74d0c	0.020422481
29	0x3c0bae08	0.008525379
30	0x3c8defce	0.017326262
31	0xba55b0c0	-0.0008151643
32	0x3f3be36e	0.73393905
33	0xbe096e58	-0.13420999
34	0xbf59b412	-0.8504039
35	0xbf4c8831	-0.7989531
36	0xbeda7e57	-0.42674515
37	0xbf0281d8	-0.50979376
38	0xbee37d53	-0.44431552
39	0xbe012cd3	-0.12614755
40	0x3eabe395	0.3357207
41	0x3f256370	0.64604855
42	0x3f8bffbc	1.0937419
43	0x3fa5264f	1.2902316
44	0x3f9930af	1.1967982
45	0x3e6db56f	0.23213743
46	0xbf504e97	-0.8136992
47	0xbf57c129	-0.84279114
48	0xbef4a4ea	-0.4778207
49	0xbf0d56f4	-0.55210805
50	0xbd8827cc	-0.06648216
51	0x3f3bd5b8	0.73372984
52	0x3c866958	0.016407654
53	0x3b51df50	0.0032023974
54	0xbcb20053	-0.02172867
55	0xbbe37f94	-0.0069426987
56	0x3c51ff3c	0.0128172
57	0xbc7418ae	-0.014898462
58	0xbf2a79ba	-0.6659199
59	0x3f0f1528	0.55891657
60	0xbf3f5b02	-0.7474824
61	0xbf93bdc7	-1.154229
62	0xbfaa56a0	-1.3307686
63	0xbfafaddd	-1.3724934
64	0xbf9c4856	-1.2209575
65	0xbf51094d	-0.81654817
66	0xbf4033a2	-0.75078785
67	0xbf2e115b	-0.6799523
68	0xbf2b6c56	-0.6696218
69	0xbf215cea	-0.630324
70	0xbf121e77	-0.57077736
71	0xbee9af8a	-0.45641738
72	0xbf0a1a97	-0.5394682
73	0xbf2f0613	-0.68368644
74	0xbf363564	-0.7117522
75	0xbf4c0299	-0.79691464
76	0xbf5ea2c2	-0.869671
77	0xbf577139	-0.8415714
78	0xbf58099e	-0.84389675
79	0xbf4ca533	-0.79939574
80	0xbda32fa2	-0.079680696
81	0x3f287632	0.6580535
82	0x3cc10cb2	0.023565624
83	0x3b6071d0	0.0034247525
84	0xbc2eac3c	-0.010661181
85	0x3d01a6c7	0.031653192
86	0x3d752374	0.059848264
87	0x3dd54579	0.104136415
88	0xbf80eb5d	-1.0071827
89	0xbf08ad82	-0.5338975
90	0xbf9d1745	-1.2272726
91	0xbf46e839	-0.77698094
92	0xbef31537	-0.47477123
93	0xbef70b82	-0.48250967
94	0xbeb95304	-0.36196148
95	0xbe059a86	-0.13047227
96	0x3d98b87d	0.07457063
97	0x3e01f69a	0.12691727
98	0x3e021ef5	0.12707122
99	0x3df1e2fd	0.11810873
100	0xbcff1afd	-0.031140799
101	0xbe35737e	-0.17719838
102	0xbeca00ca	-0.39453727
103	0xbed8dbb0	-0.42355108
104	0xbed354c5	-0.41275612
105	0xbf100fa1	-0.5627385
106	0xbf42326c	-0.7585819
107	0xbf57d1aa	-0.84304297
108	0xbf454bf1	-0.77069
109	0xbe7af568	-0.24507678
110	0xbf825f9b	-1.0185426
111	0xbb6f8510	-0.0036547817
112	0x3c85172c	0.0162464
113	0x3f928a63	1.1448482
114	0x3f1681d2	0.5879184
115	0x3fa1a2c8	1.2627802
116	0xbf8cc579	-1.0997764
117	0xbe91efbf	-0.28503224
118	0x3e5d29c7	0.21597968
119	0x3e20bc15	0.15696748
120	0x3d836609	0.06415946
121	0x3d7cc056	0.061706863
122	0x3e22aafe	0.15885541
123	0x3ebe6224	0.3718425
124	0x3ec63627	0.3871319
125	0x3edbb89b	0.4291428
126	0x3ea7e18b	0.32789263
127	0x3ed7a54a	0.42118293
128	0x3e7cef38	0.2470063
129	0x3e339989	0.17539038
130	0x3e2316b3	0.15926628
131	0x3cda0315	0.026612798
132	0x3c77d29b	0.015125896
133	0x3d2b2a51	0.041788403
134	0xbe09fd43	-0.13475518
135	0xbeee8b4c	-0.4659065
136	0xbeb6660f	-0.3562474
137	0xbd25df12	-0.04049594
138	0x3e0a4c64	0.13505703
139	0xbfacd546	-1.3502586
140	0xbbd50f24	-0.006502049
141	0xbd08a93d	-0.033364523
142	0xbf10902d	-0.56469995
143	0x3f7e7df8	0.99410963
144	0xbb8ee994	-0.004361341
145	0x3eef50fd	0.46741477
146	0x3ed7842c	0.42093027
147	0x3e2da0f0	0.16955924
148	0x3d6d027d	0.0578637
149	0xb9c54af3	-0.0003763061
150	0x3dfeb381	0.124365814
151	0x3e6e8f75	0.23296912
152	0x3e3b861b	0.18312876
153	0x3e8662e1	0.26247314
154	0x3e23673f	0.15957354
155	0x3e301723	0.17196326
156	0x3df7e764	0.12104681
157	0xbcca9915	-0.024731198
158	0xbd9ba6cf	-0.076001756
159	0xbe0936c6	-0.133998
160	0xbe30caec	-0.17264909
161	0xbe5cc85c	-0.21560806
162	0xbef1a7fc	-0.47198474
163	0xbf3ba011	-0.73291117
164	0xbf07e431	-0.5308257
165	0xbe20482a	-0.15652528
166	0xbdd1f8a0	-0.102524996
167	0xbfa33638	-1.2750921
168	0xbc8b8d90	-0.017035276
169	0x3f4821f2	0.78176796
170	0x3fbcf71c	1.4762912
171	0x3f900739	1.1252204
172	0x3f2a2390	0.66460514
173	0x3f154065	0.58301383
174	0x3ee00e35	0.4376084
175	0x3de494b0	0.111611724
176	0x3d1ff43b	0.039051276
177	0x3ca4adf9	0.020102488
178	0x3e056c62	0.13029626
179	0x3e19d587	0.1502286
180	0x3e667eb2	0.22509268
181	0x3e9b5856	0.30340832
182	0x3eb33691	0.35002568
183	0x3eadb6e7	0.33928606
184	0x3e96b31b	0.29433522
185	0x3e40c02d	0.18823309
186	0x3e16857d	0.14699359
187	0x3d0b7ae8	0.03405276
188	0xbcdc21cb	-0.026871582
189	0xbe8bf8e8	-0.27338338
190	0xbf18f5df	-0.5975017
191	0xbf3b26fa	-0.7310635
192	0xbef48db5	-0.47764364
193	0xbe55bb9d	-0.2087235
194	0x3ca4c047	0.020111216
195	0xbe71ea75	-0.23624595
196	0x3e630cf4	0.2217291
197	0x3f9eb057	1.2397565
198	0x3f1d01c2	0.6133081
199	0x3f6ba110	0.92042637
200	0x3f1441ac	0.5791271
201	0x3ef421d3	0.47682056
202	0x3eb24bb3	0.3482338
203	0x3d9565bd	0.07294796
204	0xbc3eb352	-0.011639433
205	0x3c82c251	0.015961798
206	0x3da3afaa	0.0799249
207	0x3e353287	0.17695056
208	0x3e9fa45a	0.31180078
209	0x3ec0d68b	0.37663683
210	0x3f048c58	0.5177665
211	0x3f06310c	0.5241859
212	0x3f00e974	0.5035622
213	0x3f00c38f	0.502984
214	0x3ee6bdc6	0.4506666
215	0x3eb0c4b7	0.34525082
216	0x3e0b683f	0.13613985
217	0xbe71b553	-0.23604326
218	0xbee66c98	-0.45004725
219	0xbefae55c	-0.49003112
220	0xbeaddb23	-0.3395625
221	0xbd26f7d6	-0.0407637
222	0x3df1df20	0.11810136
223	0x3de9ec1d	0.11421988
224	0x3f8e9fb2	1.1142485
225	0x3f8b38a1	1.0876657
226	0x3eeba3f1	0.46023515
227	0x3f2ce53c	0.67537284
228	0x3eea0b03	0.45711526
229	0x3e88aae7	0.26692888
230	0x3d9448e5	0.07240466
231	0xbc37f7b6	-0.0112284925
232	0xbd8db1c2	-0.0691867
233	0xbda571e0	-0.080783606
234	0xbd470b03	-0.048594486
235	0x3d3f4d7c	0.046704754
236	0x3e8c3ab6	0.27388543
237	0x3f05b339	0.522266
238	0x3f47de85	0.7807391
239	0x3f65f510	0.8982706
240	0x3f58544e	0.8450364
241	0x3f43af85	0.76439697
242	0x3f24c0ef	0.64356893
243	0x3ec0a151	0.37623075
244	0x3e0894cc	0.13338012
245	0xbde245ff	-0.11048507
246	0xbe798581	-0.24367334
247	0xbe7a0689	-0.24416555
248	0xbe49713d	-0.19672103
249	0x3d5b2f36	0.05351182
250	0x3e795149	0.24347414
251	0x3ed0a2a3	0.40749082
252	0x3f629aab	0.88517255
253	0x3f8ad984	1.084763
254	0x3f1564c8	0.58356905
255	0x3f2bee8e	0.6716088

layers.0.bias f4 [10]
0	0x3e497123	0.19672064
1	0xbe89ec11	-0.26937917
2	0xbec9f87d	-0.39447394
3	0xbeb03490	-0.34415102
4	0xbdda41b5	-0.10657064
5	0x3ebd91f5	0.3702542
6	0xbef6609e	-0.48120588
7	0x3ecfba78	0.40571952
8	0x3e800a55	0.25007883
9	0xbf417a97	-0.7557768

layers.1.weight f4 [10, 10]
0	0x3cd055b3	0.02543149
1	0x3f04246f	0.51618093
2	0xbc695641	-0.014241756
3	0xbe4f6398	-0.20252836
4	0x3e0c800c	0.13720721
5	0x3c93ad7b	0.018027058
6	0x3c9c1822	0.019054476
7	0xbdf4e24b	-0.119572245
8	0x3e9a779f	0.3016939
9	0x3dbcacda	0.09212656
10	0x3e83a7ee	0.25714058
11	0xbe90b833	-0.28265533
12	0x3e2ddb67	0.16978227
13	0xbe9a2d08	-0.3011248
14	0x3e8ba4a1	0.2727404
15	0xbe102c73	-0.14079456
16	0xbf170fce	-0.5900849
17	0xbd4fba61	-0.050714854
18	0xb96289ad	-0.00021604328
19	0xbe902f2d	-0.28160992
20	0xbd681016	-0.056655966
21	0x3f0d5cad	0.55219537
22	0x3d97f768	0.07420236
23	0x3dcb1ddd	0.09917805
24	0x3e3bf12f	0.18353723
25	0xbe8a7d5d	-0.2704877
26	0xbee02d20	-0.43784428
27	0xbda498d5	-0.08036963
28	0x3e761b01	0.24033739
29	0x3e26b72e	0.16280815
30	0x3eda957c	0.42692173
31	0xbee32e6b	-0.44371352
32	0xbe643222	-0.22284749
33	0x3ec9a316	0.39382237
34	0x3c3df6f4	0.011594523
35	0xbd6d6184	-0.057954326
36	0xbec648c9	-0.38727406
37	0xbf03b4a4	-0.5144751
38	0xbe58f2ec	-0.21186417
39	0x3ee8def1	0.4548259
40	0xbf412e7f	-0.7546157
41	0xbf15fa59	-0.58585125
42	0xbe8e0ed9	-0.27745703
43	0xbe2f08a0	-0.17093134
44	0xbdbcf812	-0.09227003
45	0x3ea50aef	0.32234904
46	0xbed08602	-0.4072724
47	0x3ebd5ff2	0.36987263
48	0x3d5b81b3	0.053590488
49	0x3d58c0ca	0.052918233
50	0x3e9346ae	0.28764862
51	0x3d243338	0.04008791
52	0xbf1b4583	-0.6065294
53	0x3e39e302	0.18153003
54	0x3d74b1bb	0.05973981
55	0xbf065ba9	-0.5248361
56	0xbeb8e13f	-0.3610935
57	0x3d84677b	0.0646505
58	0x3e5121c0	0.20423031
59	0xbebccec1	-0.3687649
60	0xbeebc34e	-0.46047443
61	0x3e998957	0.29987594
62	0xbe68b585	-0.22725494
63	0x3ecdf0ef	0.4022288
64	0x3e84dd6f	0.2595019
65	0x3e367abd	0.17820258
66	0x3e3f2d74	0.18669683
67	0xbe3089cc	-0.17240065
68	0xbe81b9ca	-0.25337058
69	0xbf0fdc32	-0.56195366
70	0x3f3230c5	0.69605666
71	0xbdf1ba46	-0.11803107
72	0xbe1ce85b	-0.15323012
73	0xbe2cbb5f	-0.16868351
74	0x3dc79852	0.0974585
75	0x3f0afd57	0.54292816
76	0x3ddd672a	0.108106926
77	0xbe806693	-0.25078258
78	0x3edb9813	0.4288946
79	0x3eeaa5c1	0.45829585
80	0xbe8a4c2f	-0.27011248
81	0x3e719f60	0.23595953
82	0x3c21edd0	0.009883359
83	0xbcfedf66	-0.031112384
84	0x3f2a4ab6	0.6652025
85	0xbed7949a	-0.42105561
86	0x3cfec8da	0.031101633
87	0xbe2bceb3	-0.16778068
88	0x3dda90ee	0.106721744
89	0x3eea72d3	0.4579073
90	0xbdf1849d	-0.11792872
91	0xbda1194f	-0.07866155
92	0xbde751d9	-0.11294908
93	0xbe2e85ec	-0.17043275
94	0xbeb5a8fd	-0.3548049
95	0xbd952220	-0.072818995
96	0x3e9afead	0.30272427
97	0xbe8c91c8	-0.27454972
98	0x3e171117	0.14752613
99	0xbe522813	-0.205231

layers.1.bias f4 [10]
0	0xbf668ceb	-0.90058774
1	0xbecf6b89	-0.4051173
2	0x3f284e06	0.65744054
3	0x3ef2d3d9	0.47427252
4	0xbe83cc85	-0.25741974
5	0x3f120f75	0.57054836
6	0xbeb6be9f	-0.35692307
7	0x3e664857	0.22488533
8	0x3f35632f	0.7085447
9	0xbe8fdf0b	-0.28099856
