UCDavis_ECS189G/code/stage_2_code/result/MLP_model_3.pth (torch, 33439 bytes, 4 tensors)

layers.0.weight f4 [10, 784]
0	0xbad29240	-0.0016065314
1	0xbcbb5668	-0.02286835
2	0xbc968623	-0.018374508
3	0xbca5ce40	-0.02023995
4	0x3cf85e86	0.03031851
5	0x3bfa21b8	0.007633414
6	0x3b31a920	0.0027108863
7	0x3c6ca388	0.014443286
8	0x3c989658	0.018626377
9	0x3c041778	0.008062236
10	0xbcfed853	-0.03110901
11	0xbb388370	-0.0028154515
12	0x3ffa85b7	1.9572057
13	0x3fc9da15	1.5769678
14	0x3f2d675d	0.67735845
15	0x3f278f4d	0.65453035
16	0xbc333898	-0.010938786
17	0x3c6cd7b0	0.014455721
18	0xbb95b9b8	-0.0045692585
19	0x3c898fac	0.01679214
20	0x3c93628a	0.017991323
21	0xbcf974cc	-0.0304512
22	0xbc4c038a	-0.012452016
23	0x3c92ea12	0.017933879
24	0x3cefa146	0.029251706
25	0xbc6cf652	-0.014463024
26	0xbc04511c	-0.008075979
27	0x3d0a1939	0.03371546
28	0x3ca74d0c	0.020422481
29	0x3c0bae08	0.008525379
30	0x3c8defce	0.017326262
31	0xba55b0c0	-0.0008151643
32	0x3f618c25	0.8810447
33	0xbc22d491	-0.009938375
34	0xbe0b79bb	-0.13620655
35	0xbdb5eb15	-0.08882729
36	0x3dcd4ec8	0.10024792
37	0xbe8273bf	-0.25478932
38	0x3bd97bcf	0.0066370736
39	0x3e0d05f2	0.13771799
40	0x3f439653	0.7640125
41	0x3f9720c2	1.1806872
42	0x3fba740c	1.4566665
43	0x3fe199c6	1.7625053
44	0x3fe83875	1.8142229
45	0x3f800b29	1.0003406
46	0xbec5ae08	-0.38609338
47	0xbe1aa4a2	-0.15101865
48	0x3e8b35f6	0.27189606
49	0x3ecc3fce	0.3989243
50	0x3f87d447	1.0611657
51	0x3fa8f8bb	1.3200907
52	0x3c866958	0.016407654
53	0x3b51df50	0.0032023974
54	0xbcb20053	-0.02172867
55	0xbbe37f94	-0.0069426987
56	0x3c51ff3c	0.0128172
57	0xbc7418ae	-0.014898462
58	0xbf2a79ba	-0.6659199
59	0x3fc72ae8	1.5559969
60	0xbe102b65	-0.14079054
61	0xbf775c80	-0.9662552
62	0xbf8aa1bf	-1.0830611
63	0xbf57af39	-0.84251744
64	0xbf487547	-0.7830395
65	0xbed6517f	-0.41859052
66	0xbea03b8f	-0.3129544
67	0xbdc8c163	-0.098025106
68	0xbc2adf39	-0.010429197
69	0x3dfaedce	0.12252389
70	0x3e4114ba	0.18855563
71	0x3e61737e	0.22016713
72	0x3bfdb731	0.0077427854
73	0xbe88ae80	-0.26695633
74	0xbedac6ff	-0.42729947
75	0xbf05111c	-0.5197923
76	0xbf25cf75	-0.6476968
77	0xbf090f76	-0.53539217
78	0xbed74429	-0.4204419
79	0xbe450c1b	-0.19242899
80	0x3f3b61fa	0.73196375
81	0x3f6e90a0	0.9318943
82	0x3cc10cb2	0.023565624
83	0x3b6071d0	0.0034247525
84	0xbc2eac3c	-0.010661181
85	0x3d01a6c7	0.031653192
86	0x3f9739f9	1.1814567
87	0x3f9dc1c0	1.2324753
88	0xbf9d3c61	-1.2284051
89	0x3e373390	0.17890763
90	0xbf3b0fee	-0.7307118
91	0xbe8ff45f	-0.28116128
92	0xbdef7d26	-0.11693792
93	0xbe827381	-0.25478747
94	0xbd9103aa	-0.07080777
95	0x3e60889e	0.21927115
96	0x3f1346cb	0.57529896
97	0x3f2f4cb6	0.68476427
98	0x3f442e39	0.7663303
99	0x3f3081e1	0.6894818
100	0x3ef89884	0.4855386
101	0x3ea039f5	0.31294218
102	0x3dc0c080	0.094117165
103	0xbd9ebb2f	-0.07750546
104	0xbe6293dc	-0.22126716
105	0xbf070413	-0.5274059
106	0xbf8069be	-1.003227
107	0xbfa3717d	-1.2769009
108	0xbfa70a59	-1.3050033
109	0xbf1fc804	-0.62414575
110	0xbf82fbca	-1.023309
111	0xbb6f8510	-0.0036547817
112	0x3c85172c	0.0162464
113	0x3f949059	1.1606551
114	0x3fbd6a21	1.4798013
115	0x3fe6ec70	1.8040905
116	0xbf627f63	-0.88475627
117	0xbd8b4c12	-0.06801619
118	0x3f0040a6	0.50098646
119	0x3e9d163e	0.30681032
120	0x3e88f910	0.2675252
121	0x3e84d830	0.25946188
122	0x3ecaa1d2	0.39576584
123	0x3f1728ca	0.59046614
124	0x3f17e4e2	0.5933362
125	0x3f22b2a7	0.6355385
126	0x3f170926	0.58998334
127	0x3f2f7c1d	0.68548757
128	0x3efc7b38	0.49312758
129	0x3ebfbe81	0.3745003
130	0x3ecdd543	0.40201768
131	0x3e43d7e4	0.19125324
132	0x3dae5f3a	0.08514257
133	0x3e970655	0.29497018
134	0x3e8f16ce	0.27947086
135	0xbe26c7d7	-0.1628717
136	0x3d86d1a9	0.06582958
137	0x3e7e2173	0.24817447
138	0x3f386ef9	0.7204433
139	0xbfae86d6	-1.3634899
140	0xbbd50f24	-0.006502049
141	0xbd08a93d	-0.033364523
142	0xbd560640	-0.052252054
143	0x3f98afa0	1.1928596
144	0xbea80d80	-0.328228
145	0x3f0836ba	0.53208506
146	0x3f19fd4a	0.60152113
147	0x3ec20b4d	0.37899247
148	0x3e81afd8	0.2532947
149	0x3e753c8a	0.23948875
150	0x3ec29597	0.38004753
151	0x3ed7c547	0.42142698
152	0x3e9d1241	0.3067799
153	0x3ea5cde0	0.32383633
154	0x3e2195ea	0.15779844
155	0x3e0ee502	0.13954547
156	0x3d6a54a9	0.057209644
157	0xbe390c36	-0.18071064
158	0xbe5fe02e	-0.21862862
159	0xbe40fede	-0.18847224
160	0xbd70289a	-0.05863247
161	0x3e1e7395	0.15473779
162	0x3d8759a1	0.06608892
163	0xbe79a165	-0.24377973
164	0x3e039deb	0.1285321
165	0x3f02c810	0.5108652
166	0x3f32d936	0.6986269
167	0xbf5fc962	-0.8741666
168	0xbc8b8d90	-0.017035276
169	0x3fab2d9a	1.3373291
170	0x3f9f6938	1.2453985
171	0x3fb4bcff	1.4120177
172	0x3e81365a	0.2523678
173	0x3ed07488	0.40713906
174	0x3f0db345	0.5535167
175	0x3e94aed9	0.29039648
176	0x3e9c1249	0.304827
177	0x3ea777e4	0.32708657
178	0x3ed60fcf	0.41808936
179	0x3eb87ae7	0.36031267
180	0x3ea348ac	0.31891382
181	0x3e8eeb74	0.2791401
182	0x3e5e4831	0.21707226
183	0x3e0b247a	0.13588133
184	0x3d955ef1	0.07293499
185	0xbd3330ab	-0.043747585
186	0x3c100fd5	0.008792837
187	0x3c8ad971	0.016949387
188	0x3e0f87a7	0.14016591
189	0x3cda58b9	0.026653634
190	0xbe831cd8	-0.25607944
191	0xbeba1f02	-0.36351782
192	0x3d8327a2	0.06404044
193	0x3ed2e948	0.41193604
194	0x3f1285ce	0.5723542
195	0x3f085800	0.5325928
196	0x3e630cf4	0.2217291
197	0x3fbd2ef4	1.4779954
198	0xbdb20f6c	-0.08694348
199	0x3f2e67f4	0.6812737
200	0x3d6955e7	0.05696669
201	0x3e3eb4c6	0.18623647
202	0x3ec3d2a8	0.38246655
203	0x3e7a69f1	0.24454476
204	0x3e49b944	0.1969958
205	0x3e76f351	0.24116255
206	0x3e9acaa3	0.30232725
207	0x3ec03f2c	0.37548196
208	0x3edd28fe	0.43195337
209	0x3ea28e69	0.31749275
210	0x3eae987f	0.3410072
211	0x3e987db6	0.2978341
212	0x3e7c000e	0.24609396
213	0x3e8dd856	0.27704114
214	0x3ea802a7	0.32814524
215	0x3ecad2f6	0.39614075
216	0x3ea67c29	0.32516602
217	0xbdb0ddb6	-0.08636038
218	0xbe9ee62e	-0.31034988
219	0xbe8c4885	-0.27399078
220	0x3dad53bf	0.08463239
221	0x3f0fe397	0.5620665
222	0x3f130121	0.574236
223	0x3f12f1d6	0.5740026
224	0x3f903901	1.1267396
225	0x3f4fda25	0.8119224
226	0xbe37064c	-0.17873496
227	0x3e87ca85	0.26521698
228	0xbd34d770	-0.04415077
229	0x3d05c4e8	0.032658488
230	0x3d370aeb	0.044688147
231	0x3ddff588	0.10935503
232	0x3ddd6321	0.10809923
233	0x3d9e110c	0.07718095
234	0x3e193b80	0.14964104
235	0x3e8524b6	0.2600457
236	0x3ebf1e76	0.37327927
237	0x3ee36c58	0.44418597
238	0x3f2df3d7	0.67950195
239	0x3f43ab51	0.76433283
240	0x3f2075d8	0.62679815
241	0x3f0672f0	0.5251913
242	0x3f05f887	0.5233235
243	0x3edc5428	0.43032956
244	0x3e8c13fe	0.27359003
245	0xbd9a6412	-0.07538618
246	0xbe642bb5	-0.22282298
247	0xbdda41d7	-0.10657089
248	0x3e4d0830	0.20022655
249	0x3f2199b0	0.63125134
250	0x3f6ff393	0.9373104
251	0x3f397c2a	0.72455084
252	0x3f66c472	0.901435
253	0x3fa66420	1.2999306
254	0x3e79edb3	0.24407081
255	0x3ecb4088	0.3969767

layers.0.bias f4 [10]
0	0x3ef3d29e	0.47621626
1	0xbea211ee	-0.31654304
2	0xbf176a6d	-0.5914677
3	0xbe5e9934	-0.2173813
4	0xbe8b93e8	-0.2726128
5	0x3f0ad937	0.54237694
6	0xbf062319	-0.52397305
7	0x3f327347	0.6970715
8	0x3f13b902	0.57704175
9	0xbf8e90df	-1.1137961

layers.1.weight f4 [10, 10]
0	0x3f1e5ac8	0.6185727
1	0x3f4a5a8d	0.7904442
2	0x3e4b4833	0.1985176
3	0xbf329c03	-0.69769305
4	0xbea95fc2	-0.3308087
5	0x385c22c5	5.248447e-05
6	0xbec00c03	-0.37509164
7	0x3ea5da2b	0.3239301
8	0xbe503f96	-0.20336756
9	0xbb9dcafb	-0.004815457
10	0xbda720e0	-0.08160567
11	0xbe9bc98a	-0.304272
12	0x3f2e2317	0.6802229
13	0xba6f6b9c	-0.00091331615
14	0x3f0ac07b	0.5419995
15	0xbcaf8595	-0.021426002
16	0xbe8a50b1	-0.27014688
17	0xbe95ae70	-0.29234648
18	0xbe13102b	-0.14361636
19	0xbeb0030f	-0.34377334
20	0xbe528ae6	-0.20560798
21	0xbcb1cb0d	-0.021703267
22	0x3ee1f204	0.44129956
23	0x3efd3ac0	0.49458885
24	0x3de66937	0.11250537
25	0xbe12c9b9	-0.14334764
26	0xbea31e9d	-0.31859294
27	0xbe9ccd0e	-0.30625194
28	0x3ee05ff2	0.438232
29	0x3ec80e37	0.39073345
30	0x3ef26b08	0.47347283
31	0x3e4a8b58	0.19779718
32	0xbcccd52f	-0.025003998
33	0x3e044e7b	0.12920563
34	0x3ec8225a	0.39088708
35	0xbd8564f6	-0.065133974
36	0xbf2eaf5a	-0.68236315
37	0xbe280775	-0.16409095
38	0xbf07035d	-0.52739507
39	0x3ea82b2e	0.32845443
40	0xbf2b3b98	-0.6688781
41	0x3c6d905e	0.014499752
42	0xbf1bb73b	-0.6082646
43	0x3d875efb	0.06609913
44	0xbefa4f9f	-0.4888887
45	0x3e867568	0.2626145
46	0xbe53bda0	-0.20677805
47	0x3e9cafbc	0.30602825
48	0xbe47fe01	-0.19530489
49	0xbedee6f3	-0.43535575
50	0x3b438457	0.002983352
51	0x3da74295	0.081669964
52	0xbf7b0053	-0.9804737
53	0xbee83447	-0.45352384
54	0x3e927b45	0.28609672
55	0xbdba4ba1	-0.09096456
56	0xbf23f413	-0.640443
57	0xbea6f11a	-0.3260582
58	0x3f1c7a67	0.6112427
59	0x3e24bc89	0.16087545
60	0xbe2850a0	-0.16437006
61	0x3ec2df9a	0.3806122
62	0x3ea946df	0.33061883
63	0x3f1a6364	0.6030791
64	0x3e66f78c	0.22555369
65	0x3ee4c10c	0.44678533
66	0xbe047914	-0.12936813
67	0x3dd4baaa	0.10387166
68	0xbea3ecb0	-0.32016516
69	0xbea8ac8d	-0.32944146
70	0x3ec55f31	0.38549188
71	0xbe2f408a	-0.17114463
72	0x3d849381	0.06473447
73	0x3f040816	0.5157484
74	0x3efc4ba1	0.4927645
75	0x3e61a8d5	0.2203706
76	0x3f566252	0.83743775
77	0x3de5aade	0.11214231
78	0x3f50f561	0.8162442
79	0x3d9dbbc8	0.07701832
80	0xbca52565	-0.020159433
81	0xbe662c48	-0.2247783
82	0xbdf8fc78	-0.121575296
83	0xbe8c7ac8	-0.27437425
84	0x3ed2e6ed	0.41191807
85	0xbf34b975	-0.70595485
86	0xbe96a8d6	-0.29425687
87	0x3e2475ba	0.16060534
88	0xbe860223	-0.26173505
89	0x3e20ec37	0.15715109
90	0xbf0486d0	-0.5176821
91	0xbf2b993e	-0.67030704
92	0xbefbe1a6	-0.49195594
93	0xbc98586c	-0.01859685
94	0xbe95316b	-0.29139265
95	0xbe3606b9	-0.17776002
96	0x3ebbeba0	0.36703205
97	0xbf56ea6e	-0.8395146
98	0x3f18e226	0.59720075
99	0x3e38b3f0	0.1803739

layers.1.bias f4 [10]
0	0xbf7f8b8e	-0.9982232
1	0xbf118e97	-0.568582
2	0x3f631cea	0.88715994
3	0x3dd35c59	0.10320348
4	0xbe33bffd	-0.17553706
5	0x3f58804e	0.8457078
6	0xbf7a6842	-0.97815335
7	0x3ed7f6e3	0.42180547
8	0x3f2677c4	0.650265
9	0x3d468fed	0.048477102
