UCDavis_ECS189G/code/stage_2_code/result/MLP_model_1.pth (torch, 33439 bytes, 4 tensors)

layers.0.weight f4 [10, 784]
0	0xbad29240	-0.0016065314
1	0xbcbb5668	-0.02286835
2	0xbc968623	-0.018374508
3	0xbca5ce40	-0.02023995
4	0x3cf85e86	0.03031851
5	0x3bfa21b8	0.007633414
6	0x3b31a920	0.0027108863
7	0x3c6ca388	0.014443286
8	0x3c989658	0.018626377
9	0x3c041778	0.008062236
10	0xbcfed853	-0.03110901
11	0xbb388370	-0.0028154515
12	0x3f26c7b1	0.65148455
13	0x3f2e2906	0.68031347
14	0x3f2a63fb	0.6655881
15	0x3f248bed	0.6427601
16	0xbc333898	-0.010938786
17	0x3c6cd7b0	0.014455721
18	0xbb95b9b8	-0.0045692585
19	0x3c898fac	0.01679214
20	0x3c93628a	0.017991323
21	0xbcf974cc	-0.0304512
22	0xbc4c038a	-0.012452016
23	0x3c92ea12	0.017933879
24	0x3cefa146	0.029251706
25	0xbc6cf652	-0.014463024
26	0xbc04511c	-0.008075979
27	0x3d0a1939	0.03371546
28	0x3ca74d0c	0.020422481
29	0x3c0bae08	0.008525379
30	0x3c8defce	0.017326262
31	0xba55b0c0	-0.0008151643
32	0xbcb046a3	-0.021518057
33	0xbf3ac1a7	-0.7295174
34	0xbf311914	-0.6917889
35	0xbf32ab05	-0.69792205
36	0xbf2c391b	-0.67274636
37	0xbf4060e7	-0.7514786
38	0xbf436c12	-0.7633678
39	0xbf2aed54	-0.66768384
40	0xbec878f7	-0.3915479
41	0xbe330a70	-0.1748445
42	0x3e4f16d3	0.2022355
43	0x3edca9ab	0.43098196
44	0x3ed27d5d	0.4111127
45	0xbeeb7a31	-0.45991662
46	0xbf2bc993	-0.6710445
47	0xbf3406a7	-0.7032265
48	0xbf2a6f00	-0.6657562
49	0xbf263ef0	-0.64939785
50	0xbf18bc72	-0.59662545
51	0xbf1f9f44	-0.62352395
52	0x3c866958	0.016407654
53	0x3b51df50	0.0032023974
54	0xbcb20053	-0.02172867
55	0xbbe37f94	-0.0069426987
56	0x3c51ff3c	0.0128172
57	0xbc7418ae	-0.014898462
58	0xbf2851e3	-0.6574995
59	0x3f0ebcfd	0.55757123
60	0xbf364fca	-0.712155
61	0xbf378d7b	-0.7170026
62	0xbf41aadb	-0.7565133
63	0xbf376161	-0.71632963
64	0xbf341ec1	-0.70359427
65	0xbf3a4927	-0.7276787
66	0xbf3be839	-0.7340122
67	0xbf3edc7d	-0.7455519
68	0xbf3aeea6	-0.730204
69	0xbf3d2ed4	-0.7389958
70	0xbf390bdd	-0.72283727
71	0xbf29c360	-0.66313744
72	0xbf261928	-0.64882135
73	0xbf312297	-0.69193405
74	0xbf2e0f4d	-0.679921
75	0xbf34237d	-0.7036665
76	0xbf3509d0	-0.707181
77	0xbf34d145	-0.7063182
78	0xbf31e7c5	-0.6949428
79	0xbf3aa5ad	-0.7290905
80	0xbe7f4d52	-0.24931839
81	0x3f17c154	0.5927937
82	0x3cc10cb2	0.023565624
83	0x3b6071d0	0.0034247525
84	0xbc2eac3c	-0.010661181
85	0x3d01a6c7	0.031653192
86	0x3d62d56e	0.055379324
87	0xbd32224d	-0.043489743
88	0x3e057cdb	0.1303591
89	0x3e982bae	0.29720825
90	0xbf38882f	-0.720828
91	0xbf2dcbba	-0.6788899
92	0xbf306ced	-0.6891621
93	0xbf30a469	-0.6900087
94	0xbf292ae5	-0.66081077
95	0xbf1a74a5	-0.60334235
96	0xbf0aff8e	-0.54296196
97	0xbf0563ff	-0.52105707
98	0xbefbf9fa	-0.49214154
99	0xbefe4bc1	-0.4966717
100	0xbf1416df	-0.578474
101	0xbf192f30	-0.5983763
102	0xbf1a7e28	-0.6034875
103	0xbf18df84	-0.5971606
104	0xbf179f20	-0.5922718
105	0xbf1de582	-0.61678326
106	0xbf254822	-0.6456319
107	0xbf2ea710	-0.6822367
108	0xbf35c4cf	-0.7100343
109	0xbee2b12e	-0.44275802
110	0xbf4de399	-0.8042541
111	0xbb6f8510	-0.0036547817
112	0x3c85172c	0.0162464
113	0x3f356a44	0.70865273
114	0x3f1f607e	0.6225661
115	0x3f3ecd07	0.74531597
116	0xbea68171	-0.3252063
117	0x3e5f0fcc	0.2178337
118	0x3e4a9833	0.19784622
119	0x3d8bd88f	0.06828415
120	0xbd16030a	-0.036623992
121	0xbe0a9454	-0.13533145
122	0xbd77d0b0	-0.060501754
123	0x3dd9e9f5	0.10640327
124	0x3ddc7cec	0.107660145
125	0x3deade1b	0.114681445
126	0xbcc015ff	-0.023447989
127	0xbb0f66bc	-0.0021881303
128	0xbe30dc1e	-0.17271468
129	0xbe7cad5d	-0.24675508
130	0xbe84994f	-0.25898215
131	0xbeac9dd6	-0.3371417
132	0xbeb27742	-0.34856611
133	0xbec25489	-0.3795512
134	0xbecce155	-0.40015665
135	0xbebc558e	-0.36784023
136	0xbd2a1f09	-0.041533504
137	0x3e813b3a	0.252405
138	0x3edf2fb5	0.43591085
139	0xbf5077db	-0.81432885
140	0xbbd50f24	-0.006502049
141	0xbd08a93d	-0.033364523
142	0xbf26fd53	-0.6523029
143	0x3f314cca	0.69257796
144	0x3ea66f09	0.32506588
145	0x3ef2692f	0.47345874
146	0x3ebdcbe9	0.37069634
147	0x3e403e54	0.18773776
148	0x3da6500a	0.08120735
149	0x3d2d323c	0.042284235
150	0x3e30251a	0.17201653
151	0x3e998ea4	0.2999164
152	0x3e9572d8	0.2918918
153	0x3eaf133b	0.3419436
154	0x3e880d4b	0.26572642
155	0x3e3d4451	0.18483092
156	0x3dc946cb	0.09827956
157	0xbc491f93	-0.012275594
158	0xbd8a6d03	-0.067590736
159	0xbe1cd1f7	-0.1531447
160	0xbe5d2801	-0.21597292
161	0xbe4b711b	-0.19867365
162	0xbe6626c4	-0.22475725
163	0xbe081d1d	-0.13292356
164	0x3c9c11a0	0.019051373
165	0x3e85737d	0.26064673
166	0x3e937cef	0.28806254
167	0xbf4cf87f	-0.80066675
168	0xbc8b8d90	-0.017035276
169	0x3f44a8d2	0.768201
170	0x3f13b442	0.57696927
171	0x3f3975e7	0.7244553
172	0x3f248d5e	0.6427821
173	0x3f08d03b	0.53442734
174	0x3ebea15c	0.37232482
175	0x3e89e371	0.26931337
176	0x3e4a37c1	0.19747831
177	0x3e5f38fb	0.2179908
178	0x3e8e72b8	0.27821898
179	0x3e92df21	0.2868586
180	0x3e9c5eb8	0.30541015
181	0x3e8d3c85	0.27585235
182	0x3e4cf147	0.20013915
183	0x3daeafc3	0.08529618
184	0x3c45c598	0.012071036
185	0xbd5291a6	-0.051408432
186	0xbd92f0cb	-0.07174834
187	0xbd888c93	-0.066674374
188	0xbd2428f7	-0.04007813
189	0xbbe578bd	-0.0070029185
190	0xbba3e38e	-0.005001492
191	0xbc2260c2	-0.009910764
192	0x3e0d38a3	0.13791136
193	0x3e8395ee	0.25700325
194	0x3ec83e63	0.39110097
195	0x3e7a1310	0.24421334
196	0x3e64c469	0.2234055
197	0x3f34d359	0.7063499
198	0xbe28fe23	-0.16503195
199	0x3f27f481	0.6560746
200	0x3f16b76e	0.5887364
201	0x3f0ec070	0.55762386
202	0x3f017bd3	0.50579566
203	0x3ee5d6fd	0.44890586
204	0x3ed0cf7f	0.40783307
205	0x3ec7ea85	0.39046112
206	0x3ebfbf6d	0.37450734
207	0x3eb38a02	0.3506623
208	0x3ea9834c	0.33107984
209	0x3e878c70	0.26474333
210	0x3e4a9ac2	0.19785598
211	0x3df78bd2	0.120872155
212	0x3dac86f0	0.08424175
213	0x3dc0115d	0.09378312
214	0x3de58dea	0.112087086
215	0x3e2c6f0c	0.16839236
216	0x3e801822	0.25018412
217	0x3e3dd79b	0.18539278
218	0x3e345017	0.17608677
219	0x3e3ebc12	0.1862643
220	0x3e811103	0.2520829
221	0x3eab58ab	0.33466086
222	0x3eca1e31	0.3947616
223	0x3eb450df	0.3521795
224	0x3f24a9eb	0.64321774
225	0x3eea2b20	0.45736027
226	0x3e9bca69	0.30427864
227	0x3f1c3375	0.6101602
228	0x3f193912	0.5985271
229	0x3f1a0fbd	0.60180265
230	0x3f073cbc	0.5282705
231	0x3f0a9360	0.54131126
232	0x3eefc72e	0.4683165
233	0x3ed4a7a6	0.41534156
234	0x3eb1d739	0.34734514
235	0x3ea4109f	0.3204393
236	0x3ec2fceb	0.38083586
237	0x3ee55bcb	0.44796595
238	0x3eef7084	0.4676553
239	0x3ef56478	0.47928214
240	0x3ed9f433	0.42569122
241	0x3ebc0cf9	0.36728647
242	0x3ebde2ba	0.3708704
243	0x3eb98090	0.36230898
244	0x3ec994f3	0.39371452
245	0x3ec8b496	0.39200276
246	0x3eae7ecf	0.34081122
247	0x3eb1cf0e	0.34728283
248	0x3e9aeb5c	0.3025769
249	0x3eb4d009	0.35314968
250	0x3ecb4fc4	0.39709294
251	0x3f0cd5e6	0.55013883
252	0x3e3bb34b	0.18330114
253	0x3ec46c10	0.38363695
254	0x3effc55c	0.4995526
255	0x3f201065	0.62525016

layers.0.bias f4 [10]
0	0x3d0d4849	0.034492765
1	0xbed3e245	-0.41383567
2	0xbe9fbe37	-0.3119981
3	0xbe997a85	-0.29976287
4	0x3dad905f	0.08474802
5	0x3e87e866	0.26544493
6	0xbe702a6e	-0.23453686
7	0x3ef62439	0.4807451
8	0xbd25271b	-0.040320497
9	0xbed0bf79	-0.40771082

layers.1.weight f4 [10, 10]
0	0x3eb7573d	0.35808745
1	0x3f282655	0.6568349
2	0x3d2683c7	0.040653016
3	0xbc515c7e	-0.0127783995
4	0xbda4abf1	-0.08040608
5	0x3e41f1be	0.18939874
6	0x3e1352b7	0.14387022
7	0xbeb16eea	-0.34654933
8	0x3e9fcf2a	0.3121274
9	0x3e8f2319	0.27956465
10	0x3e2adfe9	0.16686977
11	0xbf15c254	-0.58499646
12	0x3d76f54a	0.06029252
13	0x3d9d8f8d	0.07693396
14	0x3f0279f3	0.5096733
15	0xbe06cda2	-0.1316438
16	0xbf22bbfc	-0.6356809
17	0x3e406fc1	0.1879263
18	0xbe80dded	-0.25169316
19	0xbe28e97e	-0.1649532
20	0x3e3921c4	0.18079287
21	0x3eed8e62	0.46397692
22	0x3ed5d9a0	0.41767597
23	0x3f24aec0	0.6432915
24	0xbea69194	-0.32532942
25	0xbdc05cfb	-0.093927346
26	0xbeb72671	-0.35771516
27	0x3ea19daa	0.315656
28	0x3df80cfd	0.12111852
29	0x3d282a7a	0.041056134
30	0x3e8c61a1	0.27418235
31	0x3e807ba2	0.25094324
32	0xbdf798b6	-0.12089674
33	0x3cbfca11	0.023411782
34	0x3e6a9719	0.22909202
35	0x3e578fba	0.21050921
36	0xbecfef7f	-0.4061241
37	0xbf00fd50	-0.50386524
38	0xbc73e269	-0.014885523
39	0x3e56935b	0.20954649
40	0xbf008680	-0.5020523
41	0xbe15939f	-0.14607094
42	0xbeb03d5a	-0.34421808
43	0x3c37e67e	0.011224387
44	0xbe8d881c	-0.27642906
45	0x3ec8238c	0.3908962
46	0xbe52c20b	-0.20581834
47	0xbe0d6689	-0.13808645
48	0xbc8a0ffd	-0.016853327
49	0xbe4d6464	-0.20057827
50	0xbd245f89	-0.040130172
51	0x3ec20303	0.37892923
52	0xbf372345	-0.7153819
53	0xbebfdbf2	-0.37472492
54	0x3f2c2f59	0.67259747
55	0xbeae56a8	-0.34050488
56	0xbe47c376	-0.19508156
57	0xbeb3e1ee	-0.35133308
58	0x3e565236	0.20929798
59	0x3b486e80	0.0030583441
60	0xbee9ebda	-0.45687753
61	0x3eac78b9	0.33685854
62	0x3ea5f8ce	0.32416385
63	0x3dad6987	0.08467393
64	0x3eaf53af	0.34243533
65	0xbe115841	-0.14193822
66	0xbe950d1d	-0.29111567
67	0xbe4ad712	-0.19808605
68	0xbe30a9ed	-0.17252322
69	0xbe97fbe7	-0.29684374
70	0x3ed55166	0.41663665
71	0x3dbb5e26	0.09148817
72	0xbd969d20	-0.07354188
73	0x3e7f1a16	0.24912295
74	0xbbe6f8f1	-0.007048719
75	0x3eaa2fda	0.33239633
76	0x3eb66832	0.3562637
77	0x3e52eb56	0.20597586
78	0x3edd7964	0.43256676
79	0x3d9850c4	0.0743728
80	0xbe684aa9	-0.2268473
81	0xbea3241f	-0.31863496
82	0xbea0a146	-0.31373042
83	0xbe9b9961	-0.30390456
84	0x3ee1729a	0.44032747
85	0xbf1d1f24	-0.6137564
86	0x3da45b64	0.08025244
87	0xbd6f699c	-0.058450326
88	0x3ea9c405	0.33157364
89	0x3e602493	0.21888952
90	0xbe945fb2	-0.2897926
91	0xbed29fca	-0.41137534
92	0xbd71cdec	-0.059034273
93	0xbd80847d	-0.0627527
94	0xbe63fe66	-0.22265014
95	0xbe54d39d	-0.20783849
96	0x3e23b48b	0.1598684
97	0x3dc9b4cb	0.09848937
98	0x3de6efb0	0.112761855
99	0x3d29cda0	0.041455865

layers.1.bias f4 [10]
0	0xbf474f8d	-0.7785576
1	0xbdae0092	-0.084962025
2	0x3f1c4c1a	0.6105362
3	0x3e695235	0.22785266
4	0xbe7f83a3	-0.24952559
5	0x3ef9ece4	0.48813546
6	0xbe53695d	-0.20645662
7	0x3e0358fb	0.12826912
8	0x3f3a795a	0.7284142
9	0xbeedf28a	-0.46474105
