UCDavis_ECS189G/code/stage_5_code/result/GCN_model.pth (torch, 53919 bytes, 4 tensors)

gc1.weight f4 [500, 26]
00000000: 5242 d63b fb35 46bf 392c 4abf e936 173f
00000010: 0c1a 9db5 9ffa 2d3f c450 5cbf 7e34 8d3f
00000020: c1d6 f9be 265a 6abe c3ef 153f 47c7 0abf
00000030: e6e9 4cbf efb1 52bf 4b59 9e39 bb15 3d3f
00000040: 4620 693f 53b8 a935 46f5 f7be d2a5 0e3f
00000050: cf52 87bf 8c58 31bf 525a 533f b3de a6be
00000060: 1eaf 523f a1e2 393f 0af1 9b36 68e8 aabd
00000070: 45a8 a2bd 3f1b e53d a215 45b6 f00d 3b3d
00000080: 7cd9 62bd c18c 283e 1ea6 cabd 9b3a a1bd
00000090: 3bb0 223e 0e42 21be b312 01be ecb9 97bd
000000a0: f11b e3b7 4ad2 493e 0836 cb3d 76e6 90b6
000000b0: 6d62 adbd 1bea 3b3d 05d4 2ebe ce24 2abd
000000c0: c821 253e be9c e6bd 29d8 193e ed6f ce3d
000000d0: 94ea 1a36 1076 d73c ae30 e83c 689c 803d
000000e0: cb36 6c35 ea04 ca3c 29cf 013d fee2 8e3d
000000f0: aab9 53bd 726e 1cbd 5d38 9e3d 92ea 8cbd
00000100: 2954 913c e8bf 283d 41b8 25b6 fdac 843d
00000110: 6fdf 1a3d fb09 32b6 0c33 fdbc 0ea0 ac3c
00000120: b0d9 52bc 2b53 de3c 5f83 b53d 28b3 90bd
00000130: 5403 853d 1304 483d d014 45b6 ec32 acbd
00000140: a6bc e2bd 86ee 42be 925a 4136 2213 373e
00000150: 8180 c3bd c7cc 85bd c591 5f3e 1e40 833e
00000160: 69d1 48be 11ed 663e 2b05 8abc 880c a3bd
00000170: 01ad 06b7 3027 88bd f56f 0b3e 5ecf 3e36
00000180: 28cc 553e 7ce1 323e 7824 ea3d 1b01 ecbd
00000190: 9ecd 9fbd ba7f 753e ba41 97bd 1517 223e
000001a0: a0bd 3cb6 22db 0f3e 76b2 083e b065 af3c
000001b0: 4009 9536 d94e 25bd d72b a53d 4887 81bd
000001c0: 720e 163c 07c7 4fbd 718f 373c 4259 a6bc
000001d0: aef1 d83d 26b5 033e fcd1 0d37 f2dd b5bd
000001e0: 526f 61bd 4047 0233 555d b9bb b535 19bd
000001f0: 3857 f93d 0938 bc3d 39d9 9abd 8e93 cabc
00000200: d00c b9bd 6cae 06bd 0462 a535 925b 23bf
00000210: 48ac 1bbf d188 f0be dc80 b6b5 eeab 063f
00000220: 1b52 22bf 5cad b23a 2233 323f 4ad4 453f
00000230: 4e2c eabe f906 393f 8a79 a4be 21fe 20bf
00000240: b271 8eb8 9a3d abbd b02b 233f 0293 4034
00000250: 1d99 473f 4aed 133f 7aa1 763e 3fad 1dbf
00000260: 3764 f3bc ae38 203f e012 22bd 41a6 e93e
00000270: d3ce 0536 f676 123e e8c7 b23d d711 353d
00000280: b077 85b3 4a39 8ebd e138 1f3d 89b0 2fbd
00000290: f62f 813c f638 d73c 243c b93b d25d a33c
000002a0: e9b1 263e d2da ea3d 54d6 f9b7 0b4c 60bd
000002b0: 0fe1 07bd de77 7835 9a06 403d d661 d03c
000002c0: ae82 823d 0038 a63d 5993 a2bd d52c 9e3c
000002d0: 28d8 60bd eef9 65bd 0dcd 4736 cda4 4bbb
000002e0: fad1 a8bc 09a9 77bd 0419 c3b5 3593 dc3d
000002f0: cdc3 92bc 1948 8bbd 4459 143e 3c03 fd3d
00000300: e410 a4bd 2c4d 193e 8ec3 903d 4412 a0ba
00000310: b342 9437 053d 66bd 5019 2e3d 6c42 9eb5
00000320: c8b8 ec3d 64a1 943d cc41 243e e46f bbbc
00000330: b76a aabd fa93 253e ba29 a4bd 8da1 4f3d
00000340: c65c db36 e73b 41be 9ef6 23be 7900 de3e
00000350: 1f26 aa36 bea5 8a3c 04ad 17be ac0c 203f
00000360: 7d0b bcbe 436e 91be 8c6b f93e f51f afbe
00000370: e2af b1be c3dd 30be 52d5 9738 0a0e 0a3f
00000380: 40db 5a3e 3507 7c36 f72b 8ebe 0496 45bd
00000390: d3b8 d3be 1bfd 1abe 2bab 023f 128c 8dbe
000003a0: fd01 273f e199 ee3e 8c5e 8535 b40d c4bd
000003b0: 40ec 8cbd 41f9 06be 3279 9a35 cfa7 073e
000003c0: 2cb7 b2bd 814b 9abd 8345 fe3d 4578 0b3e
000003d0: 5f99 c7bd 4bb9 f23d 2180 68bd fe15 1abd
000003e0: 8155 41b8 cc8f 13bb ce0a e03d aac4 21b6
000003f0: c055 ec3d 6226 f33d f364 553c f0a3 aabd
0.0065386677 -0.7742612 -0.7897373 0.5906816 -1.1704992e-06 0.6796054 -0.8606074 1.1031644
-0.48796657 -0.22885951 0.5856897 -0.54210323 -0.800444 -0.82302755 0.00030202637 0.73861283
0.9106487 1.2645127e-06 -0.48429316 0.5572177 -1.0572146 -0.69275737 0.8255969 -0.3259178
0.8229846 0.72611433 4.6474206e-06 -0.08345109 -0.07942251 0.111868374 -2.936788e-06 0.04566759
-0.05538319 0.16459943 -0.098949656 -0.07872506 0.15887539 -0.15747854 -0.1260479 -0.07408509
-2.707352e-05 0.19709125 0.09922415 -4.3183636e-06 -0.08466039 0.045877557 -0.17073067 -0.041539006
0.16126168 -0.11260365 0.15023865 0.10079942 2.308433e-06 0.026301414 0.028343525 0.06279832
8.7996585e-07 0.024660546 0.031691704 0.06976889 -0.051690735 -0.038191266 0.07725594 -0.06880678
0.017740326 0.04119864 -2.4694166e-06 0.064783074 0.03781074 -2.6529876e-06 -0.03090813 0.021072414
-0.012869284 0.027139267 0.08862948 -0.07065421 0.064947754 0.04883201 -2.9367402e-06 -0.0840815
-0.11071138 -0.19036302 2.881196e-06 0.17878392 -0.095459945 -0.06533199 0.2183295 0.25634855
-0.19611134 0.22551371 -0.016848167 -0.079613745 -8.027303e-06 -0.066480994 0.13616927 2.843291e-06
0.2087866 0.17468828 0.11432737 -0.11523648 -0.0780289 0.23974505 -0.07385583 0.15829118
-2.812456e-06 0.14048436 0.13349327 0.021410793 4.441623e-06 -0.040358398 0.080650024 -0.06324631
0.0091587175 -0.050726917 0.011203633 -0.020306233 0.10592972 0.12862071 8.453146e-06 -0.08880223
-0.055037804 3.0332785e-08 -0.005656878 -0.037404735 0.12174839 0.09190375 -0.07560963 -0.024728563
-0.09035647 -0.032881185 1.2321984e-06 -0.638116 -0.60809755 -0.46979383 -1.359756e-06 0.52606094
-0.63406533 0.0013631987 0.6960927 0.7727705 -0.45736927 0.72276264 -0.32123977 -0.6288777
-6.792265e-05 -0.08361359 0.63738537 1.7934875e-07 0.7796801 0.5778395 0.24085036 -0.6159248
-0.029710872 0.62586486 -0.03956878 0.45634654 1.9938932e-06 0.14303192 0.08729535 0.044206467
-6.215066e-08 -0.06944521 0.038872603 -0.042892966 0.01576994 0.026272278 0.0056529213 0.019942198
0.16278805 0.11467518 -2.9782917e-05 -0.05476002 -0.033173617 9.256163e-07 0.046881296 0.025437277
0.063725814 0.0811615 -0.079382606 0.019308487 -0.054893643 -0.056146555 2.9772666e-06 -0.003107357
-0.020607937 -0.06046394 -1.4535913e-06 0.10770265 -0.01791563 -0.06800861 0.14487177 0.123541325
-0.08011034 0.14970845 0.07068549 -0.0012212475 1.7674034e-05 -0.056210537 0.04250461 -1.1791249e-06
0.11558682 0.07257345 0.16040725 -0.022880502 -0.083211355 0.1616973 -0.08015771 0.050691176
6.537509e-06 -0.18870507 -0.16012046 0.43359736 5.0708327e-06 0.016924735 -0.14812094 0.62519336
-0.36727515 -0.28404436 0.48714864 -0.3420407 -0.347045 -0.17272095 7.239975e-05 0.5392767
0.213727 3.7555121e-06 -0.27767918 -0.04823877 -0.41351947 -0.15135615 0.5104243 -0.27645928
0.6523741 0.46601775 9.936789e-07 -0.09572926 -0.068809986 -0.1318102 1.1509167e-06 0.13247608
-0.087263435 -0.075339325 0.12415602 0.13620098 -0.0974605 0.11851748 -0.05676282 -0.03761863
-4.6094417e-05 -0.002251613 0.10939561 -2.4105343e-06 0.11539793 0.11872555 0.013024556 -0.0833205

gc1.bias f4 [26]
00000000: 1297 91bd 2cea c13d 7d6f 933d fb53 7a3d
00000010: c28b 93ba 5cdb 273e 4429 7a3d a412 2a3d
00000020: 617b 293e 2689 e73d bd54 763d 4be9 173e
00000030: b5df 0a3e d455 a73d 0c05 05b8 0c7b 803d
00000040: 7a69 1c3e 459f 9bbc 69bd 0a3e 1977 423e
00000050: 767b 5f3e c5ad 763d cc32 203d b7ba 003e
00000060: 8fe6 503d efbc 1d3e
-0.071088925 0.09468493 0.07198999 0.061115246 -0.0011256861 0.16392273 0.06107451 0.041521683
0.16550972 0.11305456 0.060139406 0.14835088 0.135619 0.08170667 -3.171437e-05 0.06273469
0.15274611 -0.018996844 0.13548817 0.18990745 0.2182444 0.060224313 0.039110944 0.12571226
0.051001128 0.15404104

gc2.weight f4 [26, 3]
00000000: 121c 6ab9 37a5 96bc 3c0e cd38 427d da3f
00000010: d29b 6ebf ce3f babf e371 873f af73 b2bf
00000020: 923d adbf 4e2c 413f 3da0 cfbf 1ae3 853f
00000030: 71ad cbb7 70a0 ee36 e80e 15b6 6c68 dabf
00000040: 672a 9f3f fb62 ff3e ceed ce3f 4fc0 58bf
00000050: 655a 68bf 53f1 b8bf 19dd d1bf cfb9 9d3f
00000060: 6f7a 08bf 6fe8 c73f 7305 98bf 4761 babf
00000070: 978a cd3f aee9 73bf a9cd 123f 9d2c d6bf
00000080: 8bb5 883f 2e4f 41bf ba24 e93f 4af2 9dbf
00000090: b0c1 ce3f 6864 d1bd 5356 eebf 376f 9e3f
000000a0: e97f 9dbf 7c43 9abf ec2f 8db8 4ace 1638
000000b0: 3870 ec38 b718 afbf d017 89bf aa23 ce3f
000000c0: 253c 98bf d93b 8e3f 79ae 963f 5cad 39b7
000000d0: a68b 7736 a491 76b4 9e62 8dbf 07cb 943f
000000e0: 2cd7 a0bf 1702 bbbf 44f6 8e3f ac27 bf3e
000000f0: 20fa a73f 0fd4 ab3f 9f3c 96bf f7fd 953f
00000100: 7c59 b1bf d1a6 89bf a8f8 c0bf 6285 d2bf
00000110: 0fa7 bf3f f4cd 6cbf 4b6a e73f c1f1 82bf
00000120: f374 bbbf 9fc5 c9bf 8970 a53f bb5d b9bf
00000130: e703 5f3f 71a9 9c3f
-0.00022326436 -0.018389327 9.777813e-05 1.7069476 -0.9320651 -1.4550722 1.058163 -1.3941554
-1.3534415 0.7545823 -1.6220776 1.0459931 -2.428025e-05 7.11163e-06 -2.2211407e-06 -1.7063117
1.2434815 0.49880204 1.6166322 -0.8466844 -0.9076293 -1.4448646 -1.6395599 1.2322329
-0.5331182 1.5617808 -1.1876663 -1.4560937 1.6057919 -0.9527844 0.5734506 -1.6732365
1.0680403 -0.75511444 1.8214333 -1.2339566 1.6152859 -0.10224229 -1.8620094 1.237769
-1.230466 -1.2051845 -6.73233e-05 3.595491e-05 0.00011274259 -1.3679417 -1.0710392 1.6104634
-1.1893355 1.1112014 1.1771995 -1.1067223e-05 3.6887154e-06 -2.2963519e-07 -1.104572 1.1624459
-1.2565665 -1.4610013 1.1168904 0.37334955 1.3123207 1.342409 -1.173725 1.1718129
-1.3855433 -1.0754033 -1.5075884 -1.6446955 1.4972857 -0.9250176 1.8079313 -1.0230027
-1.4645065 -1.5763434 1.2924968 -1.4481729 0.8711533 1.223921

gc2.bias f4 [3]
00000000: 9506 a93e 190a c9be 8cfe 2dbc
0.33012834 -0.39265516 -0.010619771
